test/data_for_tests/embedding/small_roberta/small_pytorch_model.bin (torch_old, 29928 bytes, 39 tensors)

embeddings.word_embeddings.weight f4 [68, 16]
-0.007989064 0.021601962 -0.008840394 0.013815362 0.017437918 0.03174122 0.014756696 0.019368967
-0.055824902 0.013495039 -0.011109961 -0.0034533727 -0.007437811 0.0130386185 0.006007776 -0.0026104324
-0.013521814 -0.008890237 0.006014482 0.010297386 -0.03696859 -0.007040404 -0.0114192935 0.0079603745
-0.0017994664 0.04555347 -0.010915465 -0.004670212 0.0068651927 0.0206595 -0.040978096 0.028213918
-0.041467987 -0.006345975 -0.04179797 0.014719746 0.0061528287 -0.00958494 0.022824563 0.009446344
0.00079110055 0.018654581 0.010838854 -0.04647577 0.0060724798 -0.031676482 0.017342813 -0.0005070141
-0.025044845 0.0062136804 0.017426621 0.031676725 0.012570979 0.025624938 0.0038960315 0.038248613
-0.029648721 -0.023746507 -0.015336882 -0.0065966593 -0.009876275 -0.025015632 0.009946747 0.016405122
0.009963553 -0.015615672 0.013698139 -0.019243103 0.017371837 -0.00053063326 -0.011682993 0.017834691
-0.008332644 -0.018149411 -0.008873522 -0.009006036 0.019311551 -0.03680556 0.011541601 -0.0037686485
-0.004264066 -0.00662426 -0.020589763 -0.035977446 -0.021446211 -0.004336828 -0.012487488 0.002932777
-0.01722644 -0.012245766 -0.0035220876 -0.0031683147 -0.005690496 -0.040570557 0.022757336 -0.022533206
0.014898668 0.0027809073 -0.0053801155 0.00095182034 -0.018069655 0.008856452 0.02602328 0.0029688796
-0.036533616 0.025274662 -0.042871885 0.02621769 0.0058933627 -0.0005599893 -0.009620419 -0.0038844596
0.008198187 -0.003433384 -0.0115163205 0.018629564 0.009550411 -0.005581101 -0.026361426 -0.02455252
-0.0003050099 0.02164255 -0.032671228 -0.032000326 -0.0070667705 0.016995355 -0.00472341 0.05102795
-0.0050600898 0.045579743 0.05207685 -0.019177375 0.008521657 -0.022294343 -0.0026611339 0.034124885
-0.009067153 -0.0010426941 -0.007890327 -0.019651135 -0.011708502 0.012910209 -0.018568655 0.0038905255
-0.017807676 -0.000823965 0.017700555 -0.0014657711 0.0064710923 -0.025889337 0.007202496 -0.01467394
-0.0113585135 -0.021645881 0.020811856 0.011269877 0.0015311374 -0.022493167 -0.0039445115 -0.015577604
0.012943817 0.013843464 0.00024544774 0.02247488 0.01585781 -0.010617397 -0.009025375 0.005196297
0.007351598 0.04756817 0.0050978833 -0.011305818 0.0076993285 -0.023262823 0.013442573 0.016278356
0.008167648 -0.03875886 0.03661392 0.022198442 0.02780923 -0.026631033 6.996298e-05 -0.023206262
0.00559197 0.0039240606 -0.0128531465 -0.001685835 -0.042586002 0.017870354 -0.01600542 -0.017025918
0.045706704 -0.01062295 0.038232565 0.017875222 -0.024550315 -0.026272833 0.005090134 -0.018954173
-0.008622806 -0.021188218 -0.0055210195 -0.019193014 -0.023535559 -0.00622711 -0.015699686 -0.00072365935
-0.005116039 -0.013620872 -0.01744272 0.0320031 -0.03004021 0.021430228 -0.006710072 0.0027753136
0.022128722 0.019697381 0.02079013 0.01852876 -0.013434489 -0.012808375 -0.0007470979 -0.009010225
-0.004927369 -0.01704553 0.0060463017 0.013850818 0.006252873 0.013756302 0.0050205574 -0.0047305343
0.03994193 0.019423492 0.00045596377 0.01145292 0.028497403 0.009151295 0.038820628 -0.005772851
-0.02683713 -0.010607257 0.022274658 0.008193565 0.018137509 -0.014919262 -0.015491322 0.023016997
0.02894303 0.002998369 0.031157348 0.0062871748 -0.0125871645 0.0019744379 0.039614864 -0.01645542
00000000: 90e4 02bc 99f6 b03c 4dd7 10bc d459 623c
00000010: f7d9 8e3c 1503 023d 12c6 713c abab 9e3c
00000020: a7a8 64bd 4c1a 5d3c 8e06 36bc fb51 62bb
00000030: e1b8 f3bb ee9f 553c e1dc c43b ca13 2bbb
00000040: 998a 5dbc 5ba8 11bc 2215 c53b 5eb6 283c
00000050: 606c 17bd 30b3 e6bb fd17 3bbc 3b6c 023c
00000060: 13dc ebba 4696 3a3d c7d6 32bc 9408 99bb
00000070: 69f5 e03b 1d3e a93c a6d8 27bd e020 e73c
00000080: 56da 29bd e6f1 cfbb 5934 2bbd 172b 713c
00000090: ab9d c93b 270a 1dbc 94fa ba3c d7c4 1a3c
000000a0: dc61 4f3a 7ed1 983c 7395 313c 615d 3ebd
000000b0: a7fb c63b 33bf 01bd 8412 8e3c 24e9 04ba
000000c0: d92a cdbc 219c cb3b 46c2 8e3c 74bf 013d
000000d0: 82f6 4d3c 64eb d13c 9054 7f3b 94aa 1c3d
000000e0: e0e1 f2bc 0988 c2bc 8c47 7bbc ca28 d8bb
000000f0: 1ad0 21bc 95ed ccbc aef7 223c 0964 863c
00000100: 2c3e 233c e0d8 7fbc 296e 603c b6a3 9dbc
00000110: 624f 8e3c 321a 0bba 066a 3fbc 0f1a 923c
00000120: a485 08bc 13ae 94bc 4062 11bc 0e8e 13bc
00000130: 4233 9e3c 6dc1 16bd fc18 3d3c 6efb 76bb
00000140: 94b9 8bbb 5210 d9bb ddab a8bc 165d 13bd
00000150: f7af afbc f31b 8ebb 5298 4cbc d533 403b
00000160: 771e 8dbc 77a2 48bc d3d2 66bb 80a3 4fbb
00000170: 5777 babb 502d 26bd 986d ba3c 8f97 b8bc
00000180: 8b19 743c e23f 363b ae4b b0bb 9583 793a
00000190: d006 94bc a71a 113c c62e d53c 8991 423b
000001a0: 46a4 15bd cf0c cf3c 6e9a 2fbd 7bc6 d63c
000001b0: 1c1d c13b 3fcc 12ba f69e 1dbc 6b92 7ebb
000001c0: b051 063c a002 61bb f3ae 3cbc 079d 983c
000001d0: 5479 1c3c abe1 b6bb ebf3 d7bc 5e22 c9bc
000001e0: bce9 9fb9 b84b b13c 44d2 05bd c612 03bd
000001f0: 5e90 e7bb d839 8b3c d6c6 9abb af02 513d
00000200: 1ccf a5bb d3b1 3a3d 894e 553d df19 9dbc
00000210: 6c9e 0b3c a0a2 b6bc 6b66 2ebb 89c6 0b3d
00000220: 658e 14bc 02ab 88ba 6e46 01bc 6bfb a0bc
00000230: 04d5 3fbc 5785 533c 4b1d 98bc 30f8 7e3b
00000240: 67e1 91bc 5bff 57ba c100 913c 1e1f c0ba
00000250: 750b d43b e015 d4bc ea02 ec3b f76a 70bc
00000260: 0f19 3abc b452 b1bc a07d aa3c 4aa5 383c
00000270: 72b0 c83a 9743 b8bc f640 81bb 3539 7fbc
00000280: 4e12 543c b2cf 623c 70af 8039 3d1d b83c
00000290: 3de8 813c 97f4 2dbc 2bdf 13bc b345 aa3b
000002a0: ace5 f03b d7d6 423d 250c a73b 0a3c 39bc
000002b0: a64a fc3b ad91 bebc 3d3e 5c3c 305a 853c
000002c0: 99d1 053c 9cc1 1ebd 7af8 153d 82d9 b53c
000002d0: 2fd0 e33c 5329 dabc 17b9 9238 0f1b bebc
000002e0: d83c b73b 6895 803b 0196 52bc 3cf7 dcba
000002f0: a96e 2ebd d964 923c cc1d 83bc f079 8bbc
00000300: f436 3b3d e20b 2ebc c099 1c3d 0f6f 923c
00000310: be1d c9bc 203a d7bc 24cb a63b c845 9bbc
00000320: ab46 0dbc ea92 adbc abe9 b4bb ab3a 9dbc
00000330: a5cd c0bc c90c ccbb a19c 80bc f5b3 3dba
00000340: 72a4 a7bb 142a 5fbc 09e4 8ebc af15 033d
00000350: e316 f6bc 728e af3c 2ae0 dbbb 09e2 353b
00000360: 4b47 b53c 675c a13c 1050 aa3c a0c9 973c
00000370: 551c 5cbc 38da 51bc e4d8 43ba 9f9f 13bc
00000380: c475 a1bb 11a3 8bbc 0e20 c63b 8bee 623c
00000390: e7e4 cc3b 1d62 613c 7d83 a43b 9902 9bbb
000003a0: 269a 233d 041e 9f3c 6c0e ef39 07a5 3b3c
000003b0: 6373 e93c 50ef 153c 6102 1f3d 2f2a bdbb
000003c0: 8ad9 dbbc 0fca 2dbc 5879 b63c 4d3e 063c
000003d0: 1d95 943c ec6f 74bc 50cf 7dbc 248e bc3c
000003e0: ef19 ed3c 4980 443b b23d ff3c a504 ce3b
000003f0: 653a 4ebc 9265 013b 3243 223d 84cd 86bc

embeddings.position_embeddings.weight f4 [20, 16]
0.04515202 -0.041658554 -0.02704794 0.0011209673 0.01171879 -0.029694825 -0.0071733003 -0.0029229324
-0.027295262 0.03461879 0.032680098 0.018570041 -0.016492639 -0.035957757 0.0103282435 0.0071603577
-0.0020689575 -0.052352905 0.031223638 0.024593364 -0.014156237 -0.018362012 -0.021644086 0.00246167
-0.017969927 -0.022407994 -0.0052824067 0.014358797 -0.021782087 -0.0088374065 -0.050036933 0.033429224
-0.018708836 0.04599007 -0.017882083 -0.031064939 0.019465415 0.0139066465 -0.024567962 -0.021755494
-0.007659576 -0.0044734846 -0.023483422 0.011356018 -0.017889256 0.0046702325 0.0007620631 -0.011319307
-0.007613505 0.030433701 -0.0045518903 0.020622283 0.053281706 0.013423427 -0.023993691 0.0036523512
0.03375123 0.029281927 -0.014692726 -0.020953393 -0.01691702 0.0056052576 2.0540374e-05 -0.008250928
0.010093823 0.0077882004 0.007727251 -0.021987336 -0.0074980143 -0.0072716633 -0.0048863506 0.021172902
0.006158748 0.054823797 0.028082363 0.014677736 -0.003657744 0.013585525 0.009239428 0.05011355
-0.019567873 0.026426127 -0.0038539236 -0.008385981 0.008536424 0.02648282 -0.0034455615 -0.025252635
0.0008001072 0.0033899965 0.035750877 0.015372898 0.061408836 0.009708131 0.014271494 -0.010927421
0.0167038 0.034571134 0.02241847 0.007964 0.041122098 0.011890328 -0.007318336 -0.0098362705
0.01531171 0.017015457 -0.005308028 0.011827831 0.027319247 -0.024905642 -0.003473347 -0.0018663297
-0.011160836 0.013648009 -0.026804365 -0.027118333 -0.0044688615 -0.010738821 0.031580344 -0.03728805
-0.010579053 -0.0020355098 -0.006377862 -0.00938622 0.009467798 -0.013097461 0.043444023 -0.017173076
-0.018798841 0.015607716 0.01272543 -0.018981732 -0.010648766 -0.011687883 -0.0006451555 0.05341351
0.0073958193 0.0099291345 -0.018692873 0.0013417581 0.025090177 -0.02042901 -0.021202518 -0.00089354557
-0.028213196 -0.0024511213 -0.022763716 -0.026877135 0.016490083 -0.01730867 -0.010337574 0.0026957714
-0.056604523 -0.00015124268 -0.0019895618 -0.021513078 0.008282653 0.023595726 -0.01640949 0.023224778
0.0038797548 0.0035925938 0.01690535 0.011254617 -0.043001108 0.013885181 -0.023572909 -0.011989476
0.0019990895 -0.034502838 -0.009352615 0.017522011 0.014857999 0.011384454 -0.030119807 0.036278926
0.03609097 0.00094962504 -0.030405547 -0.024604797 0.025120152 -0.030974137 0.038800288 0.03739222
-0.039593518 0.028360223 0.032685015 0.0023177818 -0.017059106 0.03067413 -0.002749638 -0.010885139
0.009191045 0.01854628 0.011927415 0.0019575015 0.013283403 0.010938166 -0.020486424 0.0058196844
-0.031075316 -0.024860978 0.022829415 -0.025041543 -0.011431534 -0.011303677 0.039595865 -0.005346388
-0.0066466937 -0.009030458 0.03319719 0.020259647 -0.0082857935 0.002713028 0.014012002 -0.014115461
0.022619598 -0.011321048 -0.0018855728 0.026253853 0.022097813 -0.008495516 0.016016455 0.00742628
-0.010643393 0.029314112 0.021050667 0.020719964 0.01323835 -0.0077101737 -0.012726435 -0.031952925
0.017573602 -0.028477916 0.021849288 0.01062294 0.0027887214 0.008498173 -0.019920046 0.022252712
0.024406256 -0.014145644 0.047736615 -0.015896691 -0.0183815 -0.022170871 0.0026317039 -0.0018968668
-0.017907858 -0.028434273 0.014616163 -0.026801858 -0.012272956 -0.025099596 -0.004903492 0.0051522288
00000000: 53f1 383d 29a2 2abd a493 ddbc 6ced 923a
00000010: 2b00 403c 9042 f3bc 010e ebbb ab8e 3fbb
00000020: 509a dfbc 6fcc 0d3d 91db 053d 3320 983c
00000030: 921b 87bc 7148 13bd cb37 293c 6fa1 ea3b
00000040: 5997 07bb 0070 56bd b7c8 ff3c 0678 c93c
00000050: 90ef 67bc ee6b 96bc f04e b1bc f853 213b
00000060: ab35 93bc f890 b7bc 0a18 adbb 2941 6b3c
00000070: 5970 b2bc c5ca 10bc 87f3 4cbd 15ed 083d
00000080: 4643 99bc 1560 3c3d 727d 92bc e67b febc
00000090: ef75 9f3c b4d8 633c c042 c9bc 9438 b2bc
000000a0: 2efd fabb 4f96 92bb 4e60 c0bc 970e 3a3c
000000b0: 7d8c 92bc c008 993b 30c5 473a 9d74 39bc
000000c0: b57a f9bb 1950 f93c 0628 95bb 10f0 a83c
000000d0: eb3d 5a3d efed 5b3c 6b8e c4bc 495c 6f3b
000000e0: bb3e 0a3d a7e0 ef3c c2b9 70bc 73a6 abbc
000000f0: 9095 8abc 4fac b73b 1e4e ac37 e62e 07bc
00000100: 9060 253c 2934 ff3b e134 fd3b c91e b4bc
00000110: e7b1 f5bb 2247 eebb ae1d a0bb cb72 ad3c
00000120: 53cf c93b eb8e 603d fc0c e63c e37a 703c
00000130: c3b6 6fbb d295 5e3c f860 173c de43 4d3d
00000140: ce4c a0bc 9b7b d83c 1c92 7cbb 5b65 09bc
00000150: 5bdc 0b3c 80f2 d83c eece 61bb 9dde cebc
00000160: 49be 513a b42a 5e3b 836f 123d 9cde 7b3c
00000170: d587 7b3d da0e 1f3c fcd2 693c ed08 33bc
00000180: 68d6 883c 769a 0d3d f0a6 b73c 707b 023c
00000190: a56f 283d a6cf 423c a7ce efbb 4f28 21bc
000001a0: f7dd 7a3c 0064 8b3c f7ee adbb 85c9 413c
000001b0: 9dcc df3c eb06 ccbc 18a1 63bb a29f f4ba
000001c0: f0db 36bc e69b 5f3c d494 dbbc 4427 debc
000001d0: 876f 92bb e1f1 2fbc 645a 013d 5bbb 18bd
000001e0: c453 2dbc 3066 05bb 62fd d0bb a9c8 19bc
000001f0: d31e 1b3c bc96 56bc 5cf2 313d 8dae 8cbc
00000200: 0700 9abc 81b7 7f3c 527e 503c 947f 9bbc
00000210: 2978 2ebc 897e 3fbc a71f 29ba 20c8 5a3d
00000220: a158 f23b cfad 223c cc21 99bc eedd af3a
00000230: ea89 cd3c bd5a a7bc e7b0 adbc d43c 6aba
00000240: 5c1f e7bc fea2 20bb f97a babc 702d dcbc
00000250: 3616 873c e9ca 8dbc ee5e 29bc 8aab 303b
00000260: 25da 67bd e696 1eb9 4f63 02bb 323c b0bc
00000270: f7b3 073c d34b c13c 326d 86bc e441 be3c
00000280: 7c43 7e3b b971 6b3b 177d 8a3c 4965 383c
00000290: ee21 30bd ac7e 633c f91b c1bc 826f 44bc
000002a0: 2803 033b d952 0dbd b63b 19bc 528a 8f3c
000002b0: f76e 733c dc85 3a3c d0bd f6bc 3699 143d
000002c0: 20d4 133d 42f0 783a 0e15 f9bc 0090 c9bc
000002d0: c7c8 cd3c 79bd fdbc 0ded 1e3d 9628 193d
000002e0: d02c 22bd b353 e83c b9e0 053d ede5 173b
000002f0: 8abf 8bbc 5048 fb3c 4533 34bb 9557 32bc
00000300: 0996 163c 5eee 973c 346b 433c 6d49 003b
00000310: a1a2 593c fe35 333c 25d3 a7bc 0db3 be3b
00000320: a991 febc 40a9 cbbc c104 bb3c ec23 cdbc
00000330: 544b 3bbc 0f33 39bc 462f 223d c130 afbb
00000340: 82cc d9bb 7cf4 13bc c7f9 073d 8ff7 a53c
00000350: 23c1 07bc 0fcd 313b 9992 653c 8944 67bc
00000360: bc4c b93c eb7b 39bc 5325 f7ba 5212 d73c
00000370: 7906 b53c c730 0bbc f134 833c 2758 f33b
00000380: a061 2ebc 2624 f03c 7372 ac3c eabc a93c
00000390: aae5 583c a0a5 fcbb 8a82 50bc 12e1 02bd
000003a0: 84f6 8f3c 854a e9bc 47fd b23c d70b 2e3c
000003b0: fbc2 363b ec3b 0b3c 5d2f a3bc 524b b63c
000003c0: a1ef c73c 22c3 67bc 7887 433d c739 82bc
000003d0: cd94 96bc b09f b5bc aa78 2c3b 4aa0 f8ba
000003e0: 80b3 92bc feee e8bc a278 6f3c 928f dbbc
000003f0: 8214 49bc ab9d cdbc 79ad a0bb 07d4 a83b

embeddings.token_type_embeddings.weight f4 [1, 16]
-0.01129446 -0.04481224 0.014495181 -0.038967006 0.003053432 -0.03538355 0.020423643 0.057658598
0.0013754014 -0.022561768 0.029796826 -0.019251624 0.0033941162 0.006095733 -0.016386153 0.0016345945
00000000: 660c 39bc 0a8d 37bd 327d 6d3c de9b 1fbd
00000010: 171c 483b 57ee 10bd 7c4f a73c 6c2b 6c3d
00000020: d046 b43a 75d3 b8bc 7918 f43c 95b5 9dbc
00000030: d26f 5e3b b7be c73b 413c 86bc e43f d63a

embeddings.LayerNorm.weight f4 [16]
1.0 1.0 1.0 1.0 1.0 1.0 1.0 1.0
1.0 1.0 1.0 1.0 1.0 1.0 1.0 1.0
00000000: 0000 803f 0000 803f 0000 803f 0000 803f
00000010: 0000 803f 0000 803f 0000 803f 0000 803f
00000020: 0000 803f 0000 803f 0000 803f 0000 803f
00000030: 0000 803f 0000 803f 0000 803f 0000 803f

embeddings.LayerNorm.bias f4 [16]
0.0 0.0 0.0 0.0 0.0 0.0 0.0 0.0
0.0 0.0 0.0 0.0 0.0 0.0 0.0 0.0
00000000: 0000 0000 0000 0000 0000 0000 0000 0000
00000010: 0000 0000 0000 0000 0000 0000 0000 0000
00000020: 0000 0000 0000 0000 0000 0000 0000 0000
00000030: 0000 0000 0000 0000 0000 0000 0000 0000

encoder.layer.0.attention.self.query.weight f4 [16, 16]
0.012999575 0.009607888 -0.019502617 0.011977036 0.02487859 -0.0018131541 -0.016047614 -0.0058601014
0.0075507215 -0.0011264606 -0.05150287 -0.0044360883 0.0232213 -0.025280615 0.006712622 -0.002988476
0.0016660638 -0.017239276 -0.05457035 0.009095221 -0.010233837 -0.044020362 -0.012818156 -0.02073283
0.007499104 -0.030914081 0.023779921 0.031336337 0.013769513 -0.016633429 0.009021544 0.0023357174
-0.00968309 0.0045894 0.009168257 -0.009231852 -0.021875951 0.01554678 0.007354711 0.004290785
0.028971843 0.0080599785 0.03995065 0.005821992 -0.0012766653 -0.016960727 0.06456459 -0.01619165
-0.019291677 0.018452585 0.014892796 0.024004174 0.018231105 -0.015202822 -0.021860518 0.0055775666
0.0024216904 0.03313209 -0.03376917 0.02233915 0.01847185 -0.014935831 0.031204754 0.015697297
0.0028716575 -0.017656842 -0.020486612 -0.0009026932 0.023254082 -0.03808884 0.030765496 -0.0129604675
-0.0006266325 0.003028954 -0.027112573 0.010953432 -0.006696021 0.013025804 0.013011265 -0.0076930076
-0.022105116 -0.020690614 0.010403694 0.024176087 0.001455039 -0.048869796 0.0036255133 0.024721853
0.016396727 0.0137317525 0.050928883 -0.009104843 -0.0063944166 0.028255228 0.0071777743 0.0008242661
-0.0041880095 -0.015882278 0.013683887 -0.011953428 -0.014621984 -0.0065561766 0.0026143324 0.025076825
-0.023776514 -0.0350106 -0.024882006 -0.0016383653 0.0094468575 0.005826548 -0.00046836992 -0.007918184
-0.004516817 -0.016845662 0.016420396 0.023042008 0.009602312 0.037485063 -0.0031732866 0.031128833
-0.025741598 0.017675994 0.0136807775 -0.0014173593 -0.017297752 0.006484856 -0.017428387 -0.019080164
0.042088296 0.04972721 0.00012334158 0.0056336084 0.029381933 -0.031156516 -0.0099911075 -0.002247953
-0.0030190363 -0.015294631 0.020439731 -0.011440435 -0.0050872327 0.009717877 0.016785534 -0.01592414
-0.002227308 0.0008798058 0.03812329 -0.014470983 0.038677093 -0.009225783 0.02415874 0.028910639
0.011467861 -0.003946567 -0.01273552 0.008431043 -0.007763505 -0.006444456 -0.008001142 -0.012155189
0.012455593 0.008894717 0.0043034246 0.012372706 0.028833691 0.012408062 0.024428412 -0.017827164
0.044991825 0.006446634 -0.03607219 -0.00574161 -0.010468447 -0.024189366 0.022313887 -0.0011579103
0.021263344 0.01179264 0.017128197 0.010823754 0.0043420456 -0.018094134 -0.01749912 -0.012522252
-0.008540041 0.041669033 -0.014252474 -0.017105939 0.03709305 -0.0027968287 -0.018580355 -0.0023710246
-0.017113803 0.012909027 -0.010858825 -0.011568653 0.016197216 -0.015057313 0.0076885396 0.0074418066
0.008660267 -0.015363677 -0.008007845 0.024966506 -0.0026930966 -0.006179736 0.0050139516 -0.027060296
0.005697798 0.019493042 -0.013030029 -0.020574259 -0.012527391 -0.019961635 0.0032931613 0.0053110463
-0.033369455 0.03205582 -0.02394186 -0.0016351949 -0.031566527 -0.01681113 0.010054893 0.01822747
-0.028968547 -0.010657099 0.017811818 0.009515489 0.015263226 0.008439611 0.0055369996 0.028285017
0.017662082 -0.007869459 0.012483363 -0.0049039195 -0.013033863 -0.018337224 -0.021662239 0.0010393168
0.016130924 -0.01933073 0.004768199 -0.032487083 -3.7726927e-06 0.031359952 0.05126571 -0.008289121
0.01597446 -0.010923268 -0.0009768871 0.019901054 0.014126098 0.047481697 -0.022291686 0.006869059
00000000: 2bfc 543c 676a 1d3c f4c3 9fbc 543b 443c
00000010: 2fce cb3c 5ba7 edba 4976 83bc 1806 c0bb
00000020: 0b6c f73b bfa5 93ba acf4 52bd 9b5c 91bb
00000030: 993a be3c 4b19 cfbc 8ef5 db3b 4fda 43bb
00000040: d35f da3a 6239 8dbc 2985 5fbd 1f04 153c
00000050: d3ab 27bc b24e 34bd 3e03 52bc e5d7 a9bc
00000060: 0bbb f53b 873f fdbc 1cce c23c 885a 003d
00000070: 8699 613c d442 88bc 19cf 133c d612 193b
00000080: d3a5 1ebc ad62 963b 7536 163c 3241 17bc
00000090: 3235 b3bc ecb7 7e3c caff f03b b799 8c3b
000000a0: 5c56 ed3c 000e 043c 4ba3 233d 69c6 be3b
000000b0: c755 a7ba 39f1 8abc 713a 843d 5aa4 84bc
000000c0: 9409 9ebc e029 973c ea00 743c 67a4 c43c
000000d0: 6659 953c 4215 79bc d414 b3bc 05c4 b63b
000000e0: 39b5 1e3b 84b5 073d 8b51 0abd 9800 b73c
000000f0: 4752 973c 6ab5 74bc 1da1 ff3c 9e97 803c
00000100: 6b32 3c3b 15a5 90bc 8ad3 a7bc b7a2 6cba
00000110: 587f be3c 0b03 1cbd ec07 fc3c 2458 54bc
00000120: 9844 24ba 6a81 463b 301b debc 0676 333c
00000130: 4c6a dbbb 2f6a 553c 332d 553c a015 fcbb
00000140: ca15 b5bc 5d7f a9bc 4174 2a3c ee0c c63c
00000150: 02b7 be3a b22b 48bd 059a 6d3b 7c85 ca3c
00000160: 6e52 863c 25fb 603c ce9a 503d 7b2c 15bc
00000170: 4188 d1bb 8277 e73c 8933 eb3b 9013 583a
00000180: 923b 89bb 8d1b 82bc 6232 603c 50d8 43bc
00000190: 0c91 6fbc 32d5 d6bb 3855 2b3b ea6d cd3c
000001a0: f7c6 c2bc 4667 0fbd 59d5 cbbc 6bbe d6ba
000001b0: fec6 1a3c a1ec be3b 8c8f f5b9 45bb 01bc
000001c0: cf01 94bb eaff 89bc 1184 863c 98c2 bc3c
000001d0: 0453 1d3c f089 193d eaf6 4fbb e501 ff3c
000001e0: 0be0 d2bc 3fcd 903c 5725 603c b0c6 b9ba
000001f0: 04b4 8dbc ea7e d43b fac5 8ebc 014e 9cbc
00000200: c764 2c3d c2ae 4b3d 4155 0139 229a b83b
00000210: 61b2 f03c f33b ffbc beb1 23bc 6552 13bb
00000220: 06db 45bb 5596 7abc 3971 a73c aa70 3bbc
00000230: cdb2 a6bb bb37 1f3c d181 893c 5873 82bc
00000240: 07f8 11bb c5a2 663a 2b27 1c3d b417 6dbc
00000250: df6b 1e3d bd27 17bc 8de8 c53c 01d6 ec3c
00000260: b2e3 3b3c 3452 81bb a4a8 50bc 5b22 0a3c
00000270: 0065 febb 042c d3bb 3917 03bc 8f26 47bc
00000280: 8b12 4c3c 26bb 113c be03 8d3b e4b6 4a3c
00000290: a234 ec3c 2f4b 4b3c 181e c83c 460a 92bc
000002a0: 5949 383d 493e d33b 6fc0 13bd 1e24 bcbb
000002b0: d983 2bbc c728 c6bc 9dcb b63c 06c5 97ba
000002c0: 7730 ae3c eb35 413c 6f50 8c3c 1d56 313c
000002d0: b847 8e3b 263a 94bc 515a 8fbc 222a 4dbc
000002e0: 87eb 0bbc 26ad 2a3d 3583 69bc c121 8cbc
000002f0: e2ee 173d 004b 37bb d435 98bc 3163 1bbb
00000300: 3f32 8cbc 6280 533c 37e9 31bc 738a 3dbc
00000310: 06b0 843c f3b2 76bc 25f0 fb3b 66da f33b
00000320: cbe3 0d3c efb7 7bbc 5633 03bc 8f86 cc3c
00000330: aa7e 30bb 627f cabb 134c a43b 8ead ddbc
00000340: 98b4 ba3b dfaf 9f3c e77b 55bc 598b a8bc
00000350: b03f 4dbc 9586 a3bc 14d2 573b 4908 ae3b
00000360: 69ae 08bd f74c 033d b821 c4bc 0954 d6ba
00000370: e74b 01bd 7fb7 89bc 47bd 243c c651 953c
00000380: 724f edbc 1d9b 2ebc 17ea 913c dbe6 1b3c
00000390: 9c12 7a3c 4b46 0a3c b86f b53b fbb5 e73c
000003a0: 12b0 903c e7ee 00bc 0587 4c3c 0fb1 a0bb
000003b0: fc8b 55bc f237 96bc 0275 b1bc af39 883a
000003c0: 0025 843c 7b5b 9ebc 8d3e 9c3b 2d11 05bd
000003d0: 5e2e 7db6 4b73 003d fefb 513d 18cf 07bc
000003e0: dfdc 823c 82f7 32bc e40a 80ba 8907 a33c
000003f0: 2671 673c 2b7c 423d 0e9d b6bc d815 e13b

encoder.layer.0.attention.self.query.bias f4 [16]
0.0 0.0 0.0 0.0 0.0 0.0 0.0 0.0
0.0 0.0 0.0 0.0 0.0 0.0 0.0 0.0
00000000: 0000 0000 0000 0000 0000 0000 0000 0000
00000010: 0000 0000 0000 0000 0000 0000 0000 0000
00000020: 0000 0000 0000 0000 0000 0000 0000 0000
00000030: 0000 0000 0000 0000 0000 0000 0000 0000

encoder.layer.0.attention.self.key.weight f4 [16, 16]
0.0068932036 -0.003558599 0.014598238 0.015937809 -0.01538921 0.026850425 -0.022929573 0.043509185
0.0016287513 -0.019989086 -0.022887897 0.010896395 -0.023614999 -0.026850589 0.011937529 0.019231908
-0.008437363 -0.007887925 -0.007885816 -0.007642334 0.013175122 -0.015387755 0.0038237532 0.023776326
0.0044630957 -0.0013002367 0.02771187 -0.019655835 -0.03428856 -0.02747388 0.028834175 -0.032217134
0.0015128576 0.006690884 -0.019363623 -0.011963491 -0.009349263 -0.0013090675 -0.0042204955 -0.00962942
0.015393939 0.035370007 0.0058484017 0.043294515 -0.009063605 -0.0074782968 -0.011172708 0.028669657
0.015344523 -0.003842413 0.023272041 -0.010043503 0.029826047 0.009746853 0.025227956 -0.03549259
0.018067015 -0.015975328 -0.023579214 -0.011418246 -0.02881776 -0.006799289 -0.028455757 0.010042075
-0.011541991 0.012291734 -0.018645579 -0.032964643 -0.010693754 0.0028331284 0.0127019 -0.036466476
-0.007221618 -0.017359694 -0.035777107 0.049094304 0.01201479 0.020059502 -0.009800653 0.00030786006
-0.010467758 0.0046492172 0.020933712 0.028161474 -0.032474715 0.020641081 -0.010001639 0.015792519
-0.02297724 -0.0028373718 0.011019887 0.022128278 -0.01816393 0.001488104 0.022376686 -0.014784841
0.01170562 -0.019520223 0.012266824 -0.007485688 0.01784414 0.02546924 -0.0033827818 0.013030123
0.00667137 0.018895984 0.026833842 0.03893441 -0.039795592 0.014053958 -0.013164426 0.018484516
0.014678245 0.01228164 0.014977115 -0.01649922 -0.011136217 0.017701501 0.0027906941 -0.0075508966
-0.016508149 0.015282125 -0.004248425 0.00034329662 -0.0069129756 -8.248035e-05 -0.01647865 0.01125329
0.0068990313 0.012446736 -0.012189189 -0.05285163 -0.023457015 0.009586188 0.023931326 -0.0058104047
-0.026039762 -0.016879532 -0.009434139 0.017789138 0.006195548 0.025644142 -0.004110992 -0.038337287
-0.024520243 -0.011277503 0.0071446924 0.034934893 0.023941092 -0.027016213 -0.032168172 0.012477464
-0.01989613 0.031617813 -0.009166805 -0.00052741764 -0.027851645 -0.019139903 -0.027576143 0.010710205
-0.021322496 -0.028433366 -0.020494856 0.028563717 -0.011509702 -0.03439679 -0.017660169 -0.017069148
0.030851278 -0.010708119 -0.02351653 -0.034139886 0.0097822985 -0.012442982 -0.011774823 0.015623811
-0.01058707 0.004393289 -0.010857889 -0.000888808 0.010800985 -0.03908611 0.0052440255 -0.023388369
-0.00019930644 0.014600322 -0.005332949 0.011917375 -0.0145105515 -0.018512037 -0.039542276 -0.0050959084
0.015039964 -0.056898367 -9.776188e-05 -0.0077229077 -0.004713639 0.025700847 -0.00060380367 0.016137319
0.006383522 -0.02245063 0.024063166 0.0059992825 0.0078137955 0.02104211 -0.024899606 -0.018136354
-0.0071980148 -0.012479383 -0.009309858 -0.0035434046 0.036957555 -0.036591828 0.021070028 0.0033624033
-0.03708527 -0.032470897 0.026865816 0.007887242 -0.021169862 -0.024594447 0.023366157 0.0053310287
0.009082485 -0.04412202 -0.011985736 -0.0071410798 0.01571854 0.009345797 -0.01726402 -0.050098237
-0.0012120467 0.008647205 -0.009454829 0.0032736438 0.03186513 -0.022048434 0.051105674 -0.031884883
-0.01638686 0.03490577 0.0026290503 -0.025801722 -8.381824e-05 -0.047758497 0.043532114 0.015805852
0.018207442 -0.022125479 -0.01141435 0.02562102 0.01833251 -0.0031969303 -0.01087227 -0.04067045
00000000: 62e0 e13b 6237 69bb 732d 6f3c 0290 823c
00000010: 0623 7cbc 6cf5 db3c cdd6 bbbc b036 323d
00000020: d37b d53a 27c0 a3bc 667f bbbc cb86 323c
00000030: 3e74 c1bc c4f5 dbbc a095 433c 3c8c 9d3c
00000040: de3c 0abc 5b3c 01bc 8233 01bc 8b6c fabb
00000050: 78dc 573c ec1c 7cbc ef97 7a3b 92c6 c23c
00000060: 293f 923b b46c aaba 0104 e33c 4605 a1bc
00000070: 2972 0cbd e710 e1bc a635 ec3c 1df6 03bd
00000080: 144b c63a 343f db3b 76a0 9ebc 8502 44bc
00000090: a72d 19bc 0495 abba 154c 8abb b7c4 1dbc
000000a0: dc36 7c3c 24e0 103d f3a3 bf3b 9755 313d
000000b0: 847f 14bc 800c f5bb bc0d 37bc a1dc ea3c
000000c0: 9867 7b3c fed0 7bbb 02a5 be3c 818d 24bc
000000d0: c155 f43c 44b1 1f3c dcaa ce3c ae60 11bd
000000e0: 4701 943c b1de 82bc 3229 c1bc 9813 3bbc
000000f0: 3913 ecbc 92cc debb 0c1c e9bc 8487 243c
00000100: 9e1a 3dbc 4563 493c 9dbe 98bc ef05 07bd
00000110: db34 2fbc 02ac 393b a11b 503c df5d 15bd
00000120: 53a3 ecbb eb35 8ebc 048b 12bd 1c17 493d
00000130: afd9 443c d353 a43c eb92 20bc 4768 a139
00000140: f680 2bbc 7658 983b 2d7d ab3c e4b2 e63c
00000150: 3504 05bd 7c17 a93c eadd 23bc 505f 813c
00000160: c43a bcbc 33f3 39bb c28c 343c 5d46 b53c
00000170: 86cc 94bc 7c0c c33a 504f b73c 1e3c 72bc
00000180: eec8 3f3c e0e8 9fbc cafa 483c 814a f5bb
00000190: e02d 923c dea4 d03c a9b1 5dbb 4c7c 553c
000001a0: 829b da3b c0cb 9a3c a5d2 db3c b079 1f3d
000001b0: b400 23bd 9242 663c 9baf 57bc d76c 973c
000001c0: 067d 703c ef38 493c 9362 753c 5f29 87bc
000001d0: ae74 36bc bd02 913c 14e4 363b 836d f7bb
000001e0: 193c 87bc e161 7a3c 5f36 8bbb 7efc b339
000001f0: 3e86 e2bb 4df9 acb8 3cfe 86bc b85f 383c
00000200: 4511 e23b 65ed 4b3c 2ab5 47bc f37a 58bd
00000210: ed28 c0bc 630f 1d3c a10b c43c 3565 bebb
00000220: 5751 d5bc f246 8abc a691 1abc 87ba 913c
00000230: 0604 cb3b aa13 d23c 80b5 86bb 8f07 1dbd
00000240: adde c8bc 47c5 38bc 061e ea3b e417 0f3d
00000250: 1c20 c43c 1b51 ddbc c6c2 03bd 476e 4c3c
00000260: 35fd a2bc ae81 013d 5e30 16bc 6642 0aba
00000270: 2229 e4bc 49cb 9cbc 5de7 e1bc db79 2f3c
00000280: 84ac aebc 17ed e8bc d4e4 a7bc 75fe e93c
00000290: 3093 3cbc a6e3 0cbd 0fac 90bc 99d4 8bbc
000002a0: d2bb fc3c 1b71 2fbc bda5 c0bc 44d6 0bbd
000002b0: ef45 203c a6dd 4bbc 30eb 40bc 03fb 7f3c
000002c0: 6475 2dbc 94f5 8f3b 4ae5 31bc e5fe 68ba
000002d0: 9df6 303c c218 20bd 13d6 ab3b f798 bfbc
000002e0: eafc 50b9 3036 6f3c 05c0 aebb 1841 433c
000002f0: aabd 6dbc 8ea6 97bc 15f7 21bd 94fb a6bb
00000300: 2e6a 763c 430e 69bd 8205 cdb8 7210 fdbb
00000310: df74 9abb 958a d23c 9448 1eba 6932 843c
00000320: dd2c d13b 62ea b7bc 1e20 c53c a195 c43b
00000330: 6f05 003c 8160 ac3c 42fa cbbc b192 94bc
00000340: 53dd ebbb 5376 4cbc 6088 18bc 7738 68bb
00000350: ce60 173d 50e1 15bd 0d9b ac3c c45b 5c3b
00000360: b9e6 17bd 3400 05bd b315 dc3c 7e39 013c
00000370: 6b6c adbc 4b7a c9bc 626a bf3c e9af ae3b
00000380: b4ce 143c 4bb9 34bd d25f 44bc b8ff e9bb
00000390: 2bc4 803c 1d1f 193c 466d 8dbc cf33 4dbd
000003a0: 8add 9eba 02ad 0d3c 6de8 1abc a18a 563b
000003b0: 0385 023d eb9e b4bc 2f54 513d b999 02bd
000003c0: bc3d 86bc 5af9 0e3d 254c 2c3b 225e d3bc
000003d0: 93c7 afb8 6a9e 43bd bb4e 323d 467b 813c
000003e0: c627 953c 7e40 b5bc 4103 3bbc 2ce3 d13c
000003f0: 0f2e 963c 9783 51bb 9b21 32bc 0f96 26bd

encoder.layer.0.attention.self.key.bias f4 [16]
0.0 0.0 0.0 0.0 0.0 0.0 0.0 0.0
0.0 0.0 0.0 0.0 0.0 0.0 0.0 0.0
00000000: 0000 0000 0000 0000 0000 0000 0000 0000
00000010: 0000 0000 0000 0000 0000 0000 0000 0000
00000020: 0000 0000 0000 0000 0000 0000 0000 0000
00000030: 0000 0000 0000 0000 0000 0000 0000 0000

encoder.layer.0.attention.self.value.weight f4 [16, 16]
0.027001878 -0.022603823 -0.014664753 -0.028062642 -0.0063640396 -0.03269566 0.018582216 0.033228032
-0.006962459 0.026184592 -0.0041944454 0.03566262 -0.012302987 -0.008403516 -0.031627033 0.026482048
0.007817618 -0.013539979 0.0039877025 0.014153162 0.01641632 -0.0056911996 -0.0031364309 -0.008912596
-0.00084703206 0.009948034 0.021639101 0.02465779 -0.021564627 -0.027891196 -0.01932505 0.00453727
0.0131470645 0.002568795 -0.018720662 0.0039508133 -0.035419803 -0.0066027115 -0.031886388 -0.0057843355
0.025078757 -0.0009355898 0.0010951685 0.0019398149 0.010047204 2.6299871e-05 -0.026395537 -0.0025102592
-0.040827792 0.0017101511 -0.024135837 0.03304201 0.02179683 -0.01185817 0.031684797 -0.019778892
0.05710987 -0.008956406 0.020943802 -0.005624824 -0.032301903 0.0038219704 0.008666632 -0.010997729
0.0011816162 0.005798148 -0.027473334 -0.012749407 0.00827463 0.04548051 -0.00437277 -0.0217105
-0.0055106017 -0.004532979 0.05031998 0.005433437 -0.006599057 0.029442066 -0.017130062 -0.026810812
0.016218636 0.0026475831 -0.0005438542 -0.01270717 -0.012114429 -0.021139205 0.018031359 -0.003770769
-0.0079144575 -0.026630148 0.008464324 0.0033486113 -0.0028942463 -0.0033628035 0.008175322 0.009485919
-0.011660373 0.023312427 0.000119582386 -0.021024834 0.01755816 -0.0061367326 0.01212086 -0.011711364
-0.003534509 0.012499337 -0.035928454 -0.0024951964 0.023721475 0.021493958 0.005261934 0.01211866
-0.035896674 -0.010980519 -0.007989368 -0.009185126 -0.03915898 -0.013975868 0.0027517213 -0.017423067
0.01920449 -0.026082389 0.017967265 -0.0018163075 -0.011366794 -0.0037292063 0.013948719 -0.018587904
-0.005472205 0.0021807868 -0.032755844 -0.018054398 -0.016715422 0.01720863 -0.0051987814 -0.0028668651
0.025480654 -0.0082421005 -0.0006106517 -0.001078043 -0.018755695 -0.023298612 0.006304217 -0.029062798
-0.004466496 0.013258747 0.018564543 -0.023206409 0.016780159 -0.035041906 -0.00734884 -0.018033445
0.009902811 -0.007981631 0.03148085 0.017970925 -0.02500173 -0.03163053 0.0080576055 0.003094789
0.0016082347 0.0015898929 -0.014989067 0.030770084 -0.022698293 -0.012749921 -0.0075899228 -0.0172342
0.0073420005 0.051708408 -0.0018053518 -0.00024796216 0.00017287252 -0.015452943 0.015395878 0.009969126
-0.020013778 0.02700467 0.011155976 -0.004502515 0.010720037 -0.0030070485 -0.0026028657 0.027186261
0.008150253 -0.01987808 -0.0048356703 -0.0013678862 0.034167137 0.0013521113 -0.0062646824 -0.01762534
-0.0029897639 0.0326211 0.025925994 -0.01610012 -0.013731081 0.0063089877 -0.018628564 0.01619795
-0.026820833 0.023373522 -0.003850679 -0.01879107 0.0060180617 -0.02422987 -0.0015331593 -0.009257603
0.033090904 0.0069728415 -0.016843973 -0.0060871574 -9.0385125e-05 0.0018122394 0.042733654 -0.06020362
-0.043427724 0.021768494 0.024024997 0.008161756 0.015682606 0.025887214 0.030627366 -0.02560689
-0.018318374 0.0014755368 -0.013349363 -0.023416912 -0.007106598 -0.0045254654 -0.013068601 0.04136014
-0.016844762 0.015974358 -0.014530481 -0.007964014 0.028583767 -0.060244206 -0.0064985524 0.017472403
-0.00779937 -0.024221577 0.029272877 0.027440526 0.030100824 -0.011037151 0.013400159 0.010999727
-0.025410127 0.030273536 -0.043693922 0.0054453555 0.025655204 -0.020862522 -0.010907013 -0.00045293555
00000000: 0b33 dd3c a72b b9bc 6f44 70bc a0e3 e5bc
00000010: 6f89 d0bb e2eb 05bd bb39 983c 1e1a 083d
00000020: 5725 e4bb 1281 d63c 8f71 89bb f812 123d
00000030: 7892 49bc e7ae 09bc 598b 01bd e1f0 d83c
00000040: 7715 003c cad6 5dbc 46ab 823b aae2 673c
00000050: 857b 863c 3e7d babb 948c 4dbb 2306 12bc
00000060: 5c0b 5eba 14fd 223c 7c44 b13c 22ff c93c
00000070: 4da8 b0bc 147c e4bc 914f 9ebc 61ad 943b
00000080: c966 573c 3b59 283b 135c 99bc d375 813b
00000090: 5b14 11bd 8f5b d8bb 4d9b 02bd 868a bdbb
000000a0: f771 cd3c 5e42 75ba c28b 8f3a 6341 fe3a
000000b0: 079d 243c 8b9e dc37 743b d8bc 2983 24bb
000000c0: 0b3b 27bd 2627 e03a 85b8 c5bc 0f57 073d
000000d0: 448f b23c c548 42bc ebc7 013d 5807 a2bc
000000e0: 0aec 693d e4bd 12bc 5692 ab3c 7250 b8bb
000000f0: 004f 04bd 067a 7a3b 7dfe 0d3c d22f 34bc
00000100: 76e0 9a3a 64fe bd3b c20f e1bc e4e2 50bc
00000110: 5092 073c c549 3a3d 7449 8fbb 38da b1bc
00000120: 4792 b4bb 6289 94bb 531c 4e3d f90a b23b
00000130: e73c d8bb 7d30 f13c 5854 8cbc 59a2 dbbc
00000140: f2dc 843c 1383 2d3b 7091 0eba bc31 50bc
00000150: 997b 46bc 202c adbc 80b6 933c 021f 77bb
00000160: a4ab 01bc 7827 dabc f3ad 0a3c 6074 5b3b
00000170: 65ad 3dbb 7b62 5cbb c9f1 053c d46a 1b3c
00000180: 260b 3fbc b4f9 be3c 4ec8 fa38 463c acbc
00000190: 21d6 8f3c a516 c9bb 9296 463c 05e1 3fbc
000001a0: 39a3 67bb 05ca 4c3c b729 13bd 7386 23bb
000001b0: 8a53 c23c 1914 b03c 4d6c ac3b 588d 463c
000001c0: 6408 13bd a2e7 33bc d7e5 02bc 367d 16bc
000001d0: 2b65 20bd 0afb 64bc 3956 343b d2ba 8ebc
000001e0: bc52 9d3c bcaa d5bc 1630 933c 2b11 eeba
000001f0: ca3b 3abc b365 74bb 2b89 643c a945 98bc
00000200: 2f50 b3bb 88eb 0e3b fe2a 06bd d1e6 93bc
00000210: c8ee 88bc 1df9 8c3c 8a5a aabb 04e2 3bbb
00000220: cebc d03c e009 07bc 2414 20ba 1f4d 8dba
00000230: 8ba5 99bc bbdc bebc 9b93 ce3b 1b15 eebc
00000240: af5b 92bb 373b 593c ab14 983c 5e1b bebc
00000250: 8b76 893c 1a88 0fbd 8ace f0bb e0ba 93bc
00000260: 663f 223c 63c5 02bc 10f2 003d c337 933c
00000270: 6ed0 ccbc 048f 01bd 0c04 043c f2d1 4a3b
00000280: 67cb d23a f463 d03a b494 75bc 8b11 fc3c
00000290: c5f1 b9bc 0be5 50bc e3b4 f8bb bd2e 8dbc
000002a0: 2a95 f03b 32cc 533d 8ea1 ecba eb00 82b9
000002b0: 1d45 3539 572e 7dbc fe3e 7c3c 8c55 233c
000002c0: eff3 a3bc e638 dd3c 8ec7 363c d589 93bb
000002d0: 18a3 2f3c e711 45bb d794 2abb b9b5 de3c
000002e0: a488 053c 5bd7 a2bc 8b74 9ebb a54a b3ba
000002f0: d7f2 0b3d 5439 b13a f747 cdbb 0463 90bc
00000300: eaef 43bb b49d 053d c062 d43c 66e4 83bc
00000310: 54f8 60bc a0bb ce3b ee9a 98bc 90b1 843c
00000320: 5db7 dbbc d479 bf3c ac5b 7cbb bbef 99bc
00000330: 2933 c53b b87d c6bc 4af4 c8ba 34ad 17bc
00000340: 548a 073d 6f7c e43b 5ffc 89bc c776 c7bb
00000350: 258d bdb8 aa88 ed3a 7c09 2f3d 1298 76bd
00000360: 45e1 31bd d753 b23c 12d0 c43c e3b8 053c
00000370: cf78 803c 6c11 d43c 3ee6 fa3c 8ac5 d1bc
00000380: 6a10 96bc cd66 c13a 49b7 5abc d3d4 bfbc
00000390: 77de e8bb 5b4a 94bb af1d 56bc 4069 293d
000003a0: 07fe 89bc a8dc 823c 4111 6ebc 7f7b 02bc
000003b0: 8128 ea3c a1c2 76bd cff1 d4bb 4922 8f3c
000003c0: dc91 ffbb 546c c6bc accd ef3c f4ca e03c
000003d0: 0196 f63c 2bd5 34bc 578c 5b3c 3338 343c
000003e0: e628 d0bc 3500 f83c 66f8 32bd f46e b23b
000003f0: dd2a d23c e1e7 aabc 54b3 32bc fb77 edb9

encoder.layer.0.attention.self.value.bias f4 [16]
0.0 0.0 0.0 0.0 0.0 0.0 0.0 0.0
0.0 0.0 0.0 0.0 0.0 0.0 0.0 0.0
00000000: 0000 0000 0000 0000 0000 0000 0000 0000
00000010: 0000 0000 0000 0000 0000 0000 0000 0000
00000020: 0000 0000 0000 0000 0000 0000 0000 0000
00000030: 0000 0000 0000 0000 0000 0000 0000 0000

encoder.layer.0.attention.output.dense.weight f4 [16, 16]
0.0027047142 -0.010506285 -0.034230154 0.005895479 0.004500502 0.0100285 -0.026290342 -0.010648173
0.01011634 -0.019304048 -0.010797807 0.0002575229 -0.00386487 -0.0069412896 -0.008904358 0.034189522
-0.01626771 -0.013365763 0.012340927 0.007216524 -0.026208734 -0.017576145 -0.019545393 -0.024901034
-0.034330416 -0.009494822 -0.021567876 0.007432208 -0.010475338 -0.003114413 0.043880787 0.00048242288
0.00493473 -0.0058122897 -0.022736052 0.020384299 -0.0063959816 -0.026739368 -0.046364572 -0.0045638965
0.008993142 -0.016134111 -0.027314255 -0.013939591 0.060002334 -0.0010598537 -0.03947641 0.04919045
-0.03258534 -0.019249652 0.00803136 0.038322147 0.0006206904 0.043002166 -0.01697093 0.03141915
-0.04648427 -0.0010132225 -0.029648835 -0.018369595 -0.016310884 -0.03576109 0.01831731 0.011145907
-0.025471618 -0.0018447946 -0.005639399 0.022041772 -0.004712167 -0.016004812 0.01665908 0.024083579
-0.020751787 -0.024910599 0.0063070636 0.005524239 0.025151402 0.010855161 -0.0066369227 0.00012961103
-0.004468776 0.0024317815 0.019464593 -0.01515713 0.010273836 0.005160541 -0.022764992 0.0029626822
-0.013150524 -0.02238718 0.020644454 -0.0059764325 -0.027585527 0.015892273 0.0057482272 0.0067264442
0.005961877 -0.0058203856 -0.012804356 -0.02071212 0.018295664 -0.0024706034 0.0029075416 8.364457e-06
0.008140609 0.028851258 -0.021414034 0.0057566552 0.0029417733 -0.004757859 -0.02593908 0.0077500506
0.010091433 -0.0053519867 0.021813039 0.018050708 0.0018330852 -0.028424019 -0.018612526 -0.020877928
-0.010219542 -0.013800251 -0.024071492 0.0020603577 0.019627316 -0.024996445 0.018883971 -0.0035997864
-0.039206453 -0.009777928 -0.023169411 0.019352151 0.005968842 -0.00022557414 0.032234322 0.033630744
0.013801823 0.008878698 0.02194823 -0.004429274 -0.027696546 0.026224785 -0.007709453 0.031181298
0.03926358 0.0025266574 -0.012121896 0.010943632 -0.00653895 0.0049247774 0.007403989 -0.0017240784
0.010279304 0.0068094353 0.013380248 0.028051108 0.0006933202 -0.005734525 0.02159622 0.00564793
-0.021209972 0.008432641 -0.014341834 0.00020051745 0.015419933 -0.018710187 -0.0066510523 0.0044475407
0.026803289 0.009616932 0.0015330965 -0.00014149045 -0.022892084 0.018231295 0.036341358 0.009848335
-0.030291084 0.001360959 -0.0133225 0.014582904 0.0072244112 0.048025683 0.0035225498 0.02571134
0.016223608 0.036422547 -0.0013722597 0.007537521 -0.010459511 0.034772575 -0.015377377 -0.008070175
0.01719634 0.012893874 0.0002711104 0.0067907143 0.02489281 0.031502917 0.009958911 0.022455413
-0.002486305 0.010199112 -0.03810651 0.009411255 0.0026251976 0.0016635488 0.015016188 -0.019729277
0.015226309 0.016680399 -0.04393874 0.008915745 -0.039359353 0.035073064 -0.024189975 0.00030219794
0.003144104 0.025508337 0.022542771 -0.02510479 -0.014046803 -0.015383261 0.024352986 -0.01152667
0.018335968 -0.019620474 -0.0077154986 -0.029563168 -0.0049384465 -0.025870081 0.0051272856 -0.017728295
0.035212953 -0.00230856 0.0024667967 0.019902276 0.0020101194 0.005163226 0.006403956 0.007264526
-0.022512278 0.011606124 -0.0055445516 0.020397084 0.018665407 0.007471603 -0.027762977 -0.00026381176
-0.03882149 -0.0059486884 0.018850794 0.024553888 0.0103988005 0.01108605 -1.9972587e-05 0.002735726
00000000: 9341 313b 8e22 2cbc eb34 0cbd dd2e c13b
00000010: f278 933b 944e 243c d85e d7bc ad75 2ebc
00000020: 01bf 253c 8623 9ebc 49e9 30bc 2304 8739
00000030: c249 7dbb c273 e3bb 96e3 11bc 500a 0c3d
00000040: dc43 85bc 13fc 5abc 9931 4a3c 9778 ec3b
00000050: b3b3 d6bc d9fb 8fbc a91d a0bc 41fd cbbc
00000060: 0d9e 0cbd 2b90 1bbc 1daf b0bc e189 f33b
00000070: c1a0 2bbc 2e1b 4cbb 57bc 333d b4ed fc39
00000080: 84b3 a13b 0575 bebb f540 babc f9fc a63c
00000090: 6295 d1bb 850c dbbc c7e8 3dbd bd8c 95bb
000000a0: f957 133c af2b 84bc 25c2 dfbc e262 64bc
000000b0: 02c5 753d caea 8aba 04b2 21bd ed7b 493d
000000c0: 3578 05bd 72b1 9dbc f795 033c aff7 1c3d
000000d0: d4b5 223a 0a23 303d 9f06 8bbc 5eb1 003d
000000e0: 4a66 3ebd 1bce 84ba 1de2 f2bc d57b 96bc
000000f0: 679e 85bc 397a 12bd 2f0e 963c 539d 363c
00000100: dba9 d0bc 09cd f1ba b5ca b8bb f290 b43c
00000110: 8668 9abb 861c 83bc 9f78 883c ed4a c53c
00000120: a7ff a9bc 5011 ccbc 7cab ce3b ad04 b53b
00000130: 500a ce3c d8d9 313c 8b7a d9bb 32e8 0739
00000140: cf6e 92bb 865e 1f3b 3674 9f3c 9c55 78bc
00000150: 9753 283c c119 a93b a67d babc 8f29 423b
00000160: 4c75 57bc 5265 b7bc 8f1e a93c f3d5 c3bb
00000170: 0bfb e1bc 8330 823c a05b bc3b 8169 dc3b
00000180: d95b c33b efb8 bebb 5dc9 51bc 77ac a9bc
00000190: cae0 953c d9e9 21bb 748c 3e3b 1255 0c37
000001a0: 3060 053c 7959 ec3c 7c6c afbc 53a2 bc3b
000001b0: c4ca 403b d0e7 9bbb 327e d4bc 23f4 fd3b
000001c0: 8a56 253c b85f afbb 42b1 b23c 14df 933c
000001d0: 2244 f03a 7dd9 e8bc 4c79 98bc 3008 abbc
000001e0: de6f 27bc 731a 62bc 9431 c5bc 1107 073b
000001f0: 77c9 a03c 58c5 ccbc 8fb2 9a3c 65ea 6bbb
00000200: f296 20bd 9a33 20bc c7cd bdbc 6788 9e3c
00000210: 4796 c33b 1988 6cb9 2308 043d 64c0 093d
00000220: 0b21 623c f577 113c c6cc b33c 7123 91bb
00000230: dee3 e2bc 5cd5 d63c 949f fcbb ec6f ff3c
00000240: d9d2 203d 4796 253b eb9a 46bc eb4c 333c
00000250: b044 d6bb 0760 a13b 299d f23b 79fa e1ba
00000260: 876a 283c af21 df3b d438 5b3c 70cb e53c
00000270: eebf 353a afe8 bbbb 8eea b03c 4512 b93b
00000280: 89c0 adbc 0f29 0a3c 03fa 6abc fe41 5239
00000290: e3a3 7c3c 1b46 99bc 12f1 d9bb adbc 913b
000002a0: 9292 db3c 5690 1d3c 2ff2 c83a 0e5d 14b9
000002b0: 2e88 bbbc cc59 953c adda 143d e95a 213c
000002c0: 0225 f8bc 3562 b23a 9d46 5abc 22ed 6e3c
000002d0: c1ba ec3b 94b6 443d 94da 663b 97a0 d23c
000002e0: 5fe7 843c cf2f 153d 65dd b3ba 4ffd f63b
000002f0: 5e5e 2bbc b06d 0e3d 65f1 7bbc c438 04bc
00000300: 57df 8c3c d440 533c d223 8e39 a484 de3b
00000310: 02ec cb3c 3409 013d b32a 233c 6af4 b73c
00000320: 47f1 22bb 2d1a 273c 9215 1cbd aa31 1a3c
00000330: 820b 2c3b 6f0b da3a 7506 763c 4b9f a1bc
00000340: c577 793c 55a5 883c 1cf9 33bd 5813 123c
00000350: 4637 21bd c6a8 0f3d 0e2a c6bc 5270 9e39
00000360: 500d 4e3b dcf6 d03c 9eab b83c 90a8 cdbc
00000370: 9024 66bc 130a 7cbc ea7f c73c 5cda 3cbc
00000380: 5035 963c 1ebb a0bc 4bd2 fcbb 752e f2bc
00000390: b1d2 a1bb 7eed d3bc ca02 a83b ee3a 91bc
000003a0: 753b 103d 364b 17bb fba9 213b 190a a33c
000003b0: 35bc 033b 4730 a93b 47d8 d13b 430b ee3b
000003c0: ab6b b8bc 9d27 3e3c 12af b5bb c917 a73c
000003d0: 32e8 983c 59d4 f43b 2f6f e3bc 3750 8ab9
000003e0: 4803 1fbd 37ed c2bb fb6c 9a3c 3c25 c93c
000003f0: bb5f 2a3c 44a2 353c ce8a a7b7 de49 333b

encoder.layer.0.attention.output.dense.bias f4 [16]
0.0 0.0 0.0 0.0 0.0 0.0 0.0 0.0
0.0 0.0 0.0 0.0 0.0 0.0 0.0 0.0
00000000: 0000 0000 0000 0000 0000 0000 0000 0000
00000010: 0000 0000 0000 0000 0000 0000 0000 0000
00000020: 0000 0000 0000 0000 0000 0000 0000 0000
00000030: 0000 0000 0000 0000 0000 0000 0000 0000

encoder.layer.0.attention.output.LayerNorm.weight f4 [16]
1.0 1.0 1.0 1.0 1.0 1.0 1.0 1.0
1.0 1.0 1.0 1.0 1.0 1.0 1.0 1.0
00000000: 0000 803f 0000 803f 0000 803f 0000 803f
00000010: 0000 803f 0000 803f 0000 803f 0000 803f
00000020: 0000 803f 0000 803f 0000 803f 0000 803f
00000030: 0000 803f 0000 803f 0000 803f 0000 803f

encoder.layer.0.attention.output.LayerNorm.bias f4 [16]
0.0 0.0 0.0 0.0 0.0 0.0 0.0 0.0
0.0 0.0 0.0 0.0 0.0 0.0 0.0 0.0
00000000: 0000 0000 0000 0000 0000 0000 0000 0000
00000010: 0000 0000 0000 0000 0000 0000 0000 0000
00000020: 0000 0000 0000 0000 0000 0000 0000 0000
00000030: 0000 0000 0000 0000 0000 0000 0000 0000

encoder.layer.0.intermediate.dense.weight f4 [20, 16]
0.021110257 0.0044084806 -0.011860018 0.03006915 0.021776024 0.0026753114 -0.027266689 0.009947416
0.02636882 0.03693604 -0.012710696 0.0077771926 -0.0308776 0.0230394 -0.010976839 0.022762386
-0.027054023 0.021309607 -0.0038815557 0.00030672512 0.023880485 -0.013008658 0.017349184 0.019279985
-0.0288439 0.018038724 -0.04212398 0.035324216 0.008125982 0.0021089672 0.0037757882 0.013345073
0.0363984 -0.0054325154 -0.017415162 -0.054365132 0.0057583023 0.0017839347 -0.003935228 -0.004978574
0.027902355 -0.014751871 -0.02600514 0.0022517627 -0.0033079002 -0.02756748 0.04709329 0.040508047
-0.009034269 0.008778406 -0.04064181 -0.0072067003 -0.009167942 0.014606466 -0.007956385 -0.0019255014
-0.018480424 -0.019368209 0.04535462 0.011398379 0.0065259603 -0.009377799 -0.009692147 -0.014433995
0.024685344 -0.016007595 -0.0012888524 -0.0021048659 -0.028025348 -0.019956844 0.022140559 -0.013261507
-0.0053026425 -0.009480456 0.022505594 -0.014912178 0.003172713 -0.006266219 0.008860232 0.050290078
0.030135589 -0.018788518 -0.02532666 4.0450905e-05 0.031621322 -0.011191097 0.01428724 -0.012804543
-0.021220075 -0.00023229513 0.019907424 0.0071605854 -0.026383946 0.010416056 0.0049248775 -0.031233821
-0.039903134 -0.026046328 0.03925229 0.014702123 0.020247446 -0.04070126 -0.033881914 -0.027485263
0.009984079 0.013792464 0.00067142624 -0.0029691847 -0.023182794 -0.0021237908 -0.049916442 -0.018464142
0.023882048 0.0067891916 -0.026597733 -0.028859535 0.009551536 -0.022690244 0.0135943 0.027675185
-0.007344496 -0.0032416342 -0.0009057129 0.0057907766 -0.00026202676 -0.03300706 -0.0135792075 0.005505066
-0.0017608538 0.017721742 -0.0137959905 0.024550652 0.009515254 -0.015489631 0.027900806 -0.004108574
0.018164983 0.0100674555 -4.5586676e-05 0.03512246 -0.019800315 -0.02968279 -0.010864286 -0.02792128
0.03941503 0.005229439 0.00030474216 0.007024021 0.015622311 0.016784208 0.010981387 -0.03304271
-0.009599198 -0.008910269 0.0056975726 0.0031820561 -0.029903175 -0.002170792 0.0010682527 -0.010612459
0.0124536175 -0.018279511 0.038746875 -0.018782336 -0.015966097 0.0036085865 -0.017884223 -0.027865319
0.017777665 0.010407954 0.017244926 0.0017123411 0.016575545 -0.013747514 -0.011707308 -0.031676598
0.025354275 0.039711464 0.0067198854 -0.0018556679 -0.011333482 -0.038929652 0.003399016 0.0058742077
-0.020953044 0.044209223 -0.027597256 0.016064787 0.0068407427 0.01885 0.023624318 -0.0048870193
-0.0017765958 0.01750663 -0.018782778 -0.007416656 -0.04249251 0.014481317 0.03608569 -0.008741859
0.011037484 -0.010609224 0.0066191014 0.009209175 -0.03259116 0.0013327479 0.00016522755 -0.017387427
-0.01073599 0.029455867 -0.0022341553 0.021311449 0.032354973 0.007256423 -0.0060630525 0.05742504
0.00520941 0.006528713 0.01421387 -0.02195264 0.00953999 -0.0151562365 -0.004401304 0.032005277
-0.007873873 -0.014121536 -0.025205547 -0.0017496694 -0.007210623 0.018461218 0.023434252 -0.028327726
0.0367035 0.016442452 -0.00089148805 -0.026496993 0.007764352 -0.02752711 -0.00564746 -0.01969567
0.022841642 -0.005809018 -0.009126697 -3.629149e-05 -0.025607247 0.031747885 -0.02770327 0.0046301815
0.014868312 -0.01222454 -0.019121196 0.0167563 0.015560668 0.0018566486 -0.016163034 -0.02252489
00000000: 6bef ac3c 0475 903b 8550 42bc 9453 f63c
00000010: a263 b23c 4754 2f3b 645e dfbc 7dfa 223c
00000020: 6c03 d83c 3f4a 173d 8640 50bc d2d7 fe3b
00000030: 05f3 fcbc 20bd bc3c 33d8 33bc 2f78 ba3c
00000040: 66a0 ddbc 7c91 ae3c b361 7ebb f3cf a039
00000050: 02a1 c33c 4422 55bc e01f 8e3c 0ff1 9d3c
00000060: 0b4a ecbc f2c5 933c 328a 2cbd 20b0 103d
00000070: d722 053c 9936 0a3b 3773 773b 4ba5 5a3c
00000080: 7d16 153d 3e03 b2bb 3eaa 8ebc f9ad 5ebd
00000090: 24b0 bc3b ead2 e93a 16f3 80bb 4e23 a3bb
000000a0: 7b93 e43c d5b1 71bc bb08 d5bc 4f92 133b
000000b0: 5bc9 58bb 32d5 e1bc e5e4 403d c4eb 253d
000000c0: 7804 14bc 4ed3 0f3c 0778 26bd 2f26 ecbb
000000d0: 2335 16bc f54f 6f3c 7f5b 02bc 1b61 fcba
000000e0: 4264 97bc 14aa 9ebc c4c5 393d 44c0 3a3c
000000f0: b9d7 d53b 57a5 19bc d0cb 1ebc 907c 6cbc
00000100: eb38 ca3c 5c22 83bc b6ee a8ba caf1 09bb
00000110: 6a95 e5bc 897c a3bc 1e60 b53c cb46 59bc
00000120: cac1 adbb ea53 1bbc a75d b83c 3552 74bc
00000130: 4bed 4f3b db54 cdbb 822a 113c f8fc 4d3d
00000140: e9de f63c 61ea 99bc db79 cfbc d4a9 2938
00000150: 5c85 013d dd5a 37bc 0715 6a3c 25ca 51bc
00000160: b9d5 adbc 4094 73b9 e514 a33c 58a3 ea3b
00000170: 2523 d8bc 1ba8 2a3c de60 a13b 12de ffbc
00000180: 7871 23bd 1c5f d5bc 02c7 203d 2ce1 703c
00000190: f9dd a53c 5db6 26bd c3c7 0abd c628 e1bc
000001a0: 4394 233c c9f9 613c a702 303a a796 42bb
000001b0: d8e9 bdbc 4c2f 0bbb 2f75 4cbd 1d42 97bc
000001c0: 49a4 c33c de77 de3b 7de3 d9bc d56a ecbc
000001d0: 0c7e 1c3c e4e0 b9bc a0ba 5e3c 12b7 e23c
000001e0: 19aa f0bb 9971 54bb 5d6d 6dba 8ec0 bd3b
000001f0: a360 89b9 6932 07bd 537b 5ebc d763 b43b
00000200: 73cc e6ba 302d 913c 9408 62bc 731e c93c
00000210: dee5 1b3c 39c8 7dbc 3b90 e43c 37a1 86bb
00000220: bbce 943c f8f1 243c 5234 3fb8 92dc 0f3d
00000230: 4534 a2bc 5329 f3bc 1e00 32bc 2bbb e4bc
00000240: a871 213d b75b ab3b cdc5 9f39 c229 e63b
00000250: b9f4 7f3c 097f 893c 47eb 333c cb57 07bd
00000260: f445 1dbc 60fc 11bc b4b2 ba3b 0b8a 503b
00000270: 81f7 f4bc d943 0ebb 9d04 8c3a e1df 2dbc
00000280: 420a 4c3c eabe 95bc 0bb5 1e3d 6add 99bc
00000290: 55cb 82bc 097e 6c3b ef81 92bc cf45 e4bc
000002a0: 77a2 913c 2086 2a3c 3b45 8d3c a270 e03a
000002b0: 70c9 873c 413d 61bc 02d0 3fbc 52bf 01bd
000002c0: c5b3 cf3c 7da8 223d 7c32 dc3b e239 f3ba
000002d0: 12b0 39bc b374 1fbd 07c2 5e3b 6d7c c03b
000002e0: b8a5 abbc bb14 353d a413 e2bc 4d9a 833c
000002f0: 4f28 e03b 516b 9a3c c987 c13c 4a23 a0bb
00000300: aadc e8ba 106a 8f3c 57de 99bc 6b07 f3bb
00000310: a00c 2ebd 0c43 6d3c 97ce 133d 043a 0fbc
00000320: 90d6 343c 50d2 2dbc 0ce5 d83b 14e2 163c
00000330: 4f7e 05bd 99af ae3a ef40 2d39 1470 8ebc
00000340: 01e6 2fbc 6e4d f13c e86a 12bb 5995 ae3c
00000350: a686 043d 4ac7 ed3b 92ac c6bb 8536 6b3d
00000360: b3b3 aa3b d0ee d53b 4be1 683c 06d6 b3bc
00000370: 9e4d 1c3c dd51 78bc d038 90bb f717 033d
00000380: 6b01 01bc 045e 67bc dd7b cebc 2a55 e5ba
00000390: 1747 ecbb fb3b 973c 30f9 bf3c 8c0f e8bc
000003a0: 6956 163d 52b2 863c c0b2 69ba 3910 d9bc
000003b0: 1b6c fe3b 8980 e1bc 540e b9bb d058 a1bc
000003c0: 651e bb3c 9359 bebb 2488 15bc b137 18b8
000003d0: 4ac6 d1bc 120a 023d f8f1 e2bc c7b8 973b
000003e0: 389a 733c 7049 48bc 0ea4 9cbc 8244 893c
000003f0: 2cf2 7e3c ca5a f33a 5768 84bc 1e86 b8bc

encoder.layer.0.intermediate.dense.bias f4 [20]
0.0 0.0 0.0 0.0 0.0 0.0 0.0 0.0
0.0 0.0 0.0 0.0 0.0 0.0 0.0 0.0
0.0 0.0 0.0 0.0
00000000: 0000 0000 0000 0000 0000 0000 0000 0000
00000010: 0000 0000 0000 0000 0000 0000 0000 0000
00000020: 0000 0000 0000 0000 0000 0000 0000 0000
00000030: 0000 0000 0000 0000 0000 0000 0000 0000
00000040: 0000 0000 0000 0000 0000 0000 0000 0000
