test/data_for_tests/embedding/small_bert/small_pytorch_model.bin (torch_old, 37965 bytes, 39 tensors)

bert.embeddings.word_embeddings.weight f4 [20, 16]
000000 b4 69 93 3c 5d 37 a5 bb 21 c5 e3 3c 1c 1a 26 bc
       0.01799474 -0.005042 0.02780396 -0.010138061
000010 ff f2 9a 3c 12 66 15 39 fe f9 67 bc 19 cf 0f bd
       0.018914698 0.00014247771 -0.014158724 -0.035109613
000020 77 f6 09 3c 65 85 e1 3a 60 52 d6 3b 53 76 9c 3c
       0.008420578 0.0017205892 0.0065405816 0.01909939
000030 21 d6 94 3c 3d 15 c0 bc 30 ee 02 3d e2 73 2b 3a
       0.01816851 -0.023447627 0.031965435 0.00065404
000040 58 ae eb bb 50 d2 8d bc 02 df a2 bc ae e8 eb 3b
       -0.0071924143 -0.017312199 -0.019881729 0.0071993684
000050 17 9c 70 3c 69 ad 0d bb 65 37 bc 3c f2 21 11 bc
       0.014685652 -0.0021618253 0.022975633 -0.008858191
000060 96 5a 1f bb 64 b4 a7 3c 4f 2f 9d 3c 32 9a 90 3b
       -0.0024315468 0.02047176 0.019187598 0.0044129128
000070 bb a5 89 bb b2 8e d1 39 87 1e 51 3c f9 97 90 bc
       -0.004200665 0.00039969903 0.012763626 -0.017650591
000080 fb 9b f9 3c 88 92 a0 bb 39 b2 14 bc 95 07 36 3c
       0.030469885 -0.0049002804 -0.009075695 0.011110206
000090 f4 d5 fe 3b c9 71 a5 bb 16 bf 95 3a 99 07 87 3b
       0.00777697 -0.0050489646 0.0011424746 0.0041207788
0000a0 3d f7 88 bc a2 71 aa ba 6d 45 81 3c 1b 04 d8 bb
       -0.016719455 -0.0013003836 0.015780175 -0.0065922863
0000b0 22 68 2c bd 1f c9 03 bd 09 f4 cf bb fd a8 d2 bc
       -0.042091496 -0.032174226 -0.00634623 -0.025715346
0000c0 41 1e 4e 3d 6c bd 4d 3d 5d 6b 2c 3d a4 35 04 bc
       0.05032182 0.050229475 0.042094577 -0.00806943
0000d0 15 2e 4d 3c 8b e3 24 3a 52 e8 c5 bb 24 45 ab 3a
       0.012523194 0.000629001 -0.0060396576 0.001306687
0000e0 25 5e b9 3c f4 c4 43 3c 9c a1 ab bc 93 c6 52 3c
       0.0226279 0.011948813 -0.020951085 0.012864727
0000f0 ca 0b 58 3c 77 8d 33 3c 23 e8 73 bc d2 23 63 bb
       0.0131864045 0.010959021 -0.014886889 -0.0034658802
000100 62 c9 b5 ba a2 13 a6 bc 00 94 46 3c 92 7d 79 3c
       -0.0013869221 -0.020273034 0.012120247 0.015227692
000110 9e e5 f4 bc 73 82 15 bb 6a d3 54 3b ab 62 65 3b
       -0.029894646 -0.002281335 0.0032474645 0.0035001438
000120 13 1c 64 bb 99 ad 62 3c 89 92 f6 3c 70 79 ee bc
       -0.0034806773 0.013835334 0.03009917 -0.02911064
000130 7e b9 b3 bc 0e d3 d9 bb 5d b4 c3 bc 34 e3 de 3b
       -0.021939036 -0.006647474 -0.023889715 0.006801987
000140 0d 99 98 bc fc b3 2c 3d 33 f3 de bb f3 67 e5 ba
       -0.018627668 0.042163834 -0.006803894 -0.0017502293
000150 7c d7 b6 bb 9d 94 51 bd 82 46 8b bc 32 8a 75 3b
       -0.005579887 -0.05116712 -0.017001394 0.0037466404
000160 be c4 59 3c cb 75 ea 3b 37 b0 cf 3c 47 6e 31 bc
       0.013291536 0.0071551553 0.02535258 -0.010829515
000170 17 ca c8 3b 82 11 ed bb a1 92 2d 3c b7 69 10 bc
       0.0061276066 -0.007234753 0.010594041 -0.008814267
000180 61 0f d9 bc b6 dd 27 3c 06 e1 e6 b9 25 77 21 3c
       -0.026496591 0.010245731 -0.00044036674 0.009855066
000190 e7 30 06 bd 9e cd 4e bc 09 d8 cf bb d9 81 d9 bc
       -0.03276148 -0.012622265 -0.006342892 -0.026551174
0001a0 96 36 9d bc 3b d4 b7 3a ef e5 c9 3c 81 17 ad bb
       -0.019191068 0.0014025042 0.024645774 -0.005282343
0001b0 70 fa a6 3b e1 77 9d 3b d5 22 e9 bc 37 cb 26 bd
       0.0050957724 0.0048055504 -0.028458992 -0.040721145
0001c0 95 90 7e 39 9d 4c d2 bc d7 af 0c 3a 79 b0 94 bc
       0.00024277189 -0.025671298 0.00053667784 -0.018150555
0001d0 17 d7 ec 3c be b8 3d 3a f6 b0 a2 3c fb be cf bb
       0.028911157 0.00072373066 0.019859772 -0.0063399053
0001e0 fc 99 cd 3c 09 7c 04 3c 74 f1 da 3a 2a 47 49 3c
       0.02509784 0.008086213 0.0016704039 0.012285033
0001f0 6f af 5c 3c c5 11 da 3c b9 b0 30 bc d4 e7 f0 3b
       0.013469561 0.026619801 -0.010784321 0.007351855
000200 e1 81 b6 3c 0d 4c 0f 3b 2e b4 dc 3c 42 a7 71 3a
       0.022278728 0.0021865398 0.026941385 0.0009218344
000210 c2 89 b8 3b 41 5d 4b 3c 4d d8 c9 3b fc 90 ca bc
       0.0056316564 0.01241237 0.0061598183 -0.024727337
000220 68 b5 00 bd 38 78 a7 3c 44 54 14 bd 73 30 25 bc
       -0.031423002 0.020443067 -0.036213174 -0.010082352
000230 aa 39 aa 3a fc 61 c3 bb 78 a6 63 3c a7 e3 94 3c
       0.0012987156 -0.0059626084 0.01389467 0.01817496
000240 77 79 b6 3b b7 2a 2f 3c 5f 13 07 bd 2b 31 a7 bc
       0.005568679 0.010691336 -0.032977458 -0.020409187
000250 f0 6d 12 3d b0 e2 44 3a 66 9d d8 3c f8 cd cc 3c
       0.035749376 0.0007510586 0.02644224 0.025000557
000260 d9 59 6f bc 6f 5f 06 3d 0e ae 2f 3a b7 ac 95 bc
       -0.014608824 0.032805856 0.00067016564 -0.018270833
000270 64 fc 0e 3c 47 8a 1b 3d 07 b6 b2 3c c5 bf 52 3c
       0.008727167 0.03797367 0.021815313 0.012863104
000280 69 bd e5 bb 24 26 b1 3b 53 24 a8 bb 11 59 88 3a
       -0.007011105 0.005406158 -0.0051312833 0.001040252
000290 f3 ff 3a bc b5 d9 f3 ba d4 d5 45 bc dd 96 0a bd
       -0.011413562 -0.001860431 -0.012074906 -0.03383528
0002a0 67 41 b8 3c 18 73 1e 3d 7e be e8 3c 02 11 24 ba
       0.022492124 0.03868398 0.028411146 -0.0006258638
0002b0 0a 19 c5 bb 32 22 97 3a c2 29 11 3c eb 9e 05 3b
       -0.006014948 0.0011530577 0.0088600535 0.0020388912
0002c0 52 75 c3 3c 44 3b 82 3c b5 ad 8a 3b 62 23 cd 3c
       0.023859654 0.0158974 0.0042321333 0.025041286
0002d0 62 9d bb 3b 1c a7 64 bd 70 54 ea 39 d6 00 12 bc
       0.0057255486 -0.05582343 0.0004469487 -0.008911332
0002e0 ca 00 c2 3c 4e ff d3 bc 76 71 89 3b d3 54 65 3b
       0.023682017 -0.025878575 0.004194434 0.0034993186
0002f0 f3 5a ca 3a 6f b9 fc bb b3 a1 be 3c fb 25 b3 38
       0.0015438482 -0.007712535 0.023270464 8.5424595e-05
000300 13 c1 5c bb 5f 5a 82 bb 1c a7 69 3b 64 bc 09 bc
       -0.0033684417 -0.003978058 0.0035652583 -0.008406732
000310 81 32 af bb e0 f7 12 3d e5 3b 31 3c 1d 8e 26 3c
       -0.0053465967 0.035880923 0.010817503 0.010165718
000320 2e 9e 5d bc bc e8 09 3c 10 33 5f 3b 3d b3 34 bd
       -0.0135264825 0.008417305 0.0034057535 -0.044116247
000330 ab 00 7d 3d 5d 22 8f ba 30 95 ca bb 64 33 91 bb
       0.061768215 -0.0010920275 -0.0061823353 -0.004431175
000340 6f bb 50 3c ce 0f 52 3b 29 40 00 bd 7c b5 b6 3b
       0.01274 0.0032052877 -0.031311188 0.005575834
000350 4f cc a7 3b 92 bd 1e 3c b9 e9 04 bd 7d ba f2 3c
       0.005120791 0.009688752 -0.032449458 0.02962994
000360 a5 90 82 3b 8a c3 ab 3c 7b de a1 bb 2d fb b4 3c
       0.003984528 0.020967264 -0.004939852 0.022092426
000370 d2 c3 72 bb 1d 77 60 bd aa 5d 96 3b 52 03 d2 3b
       -0.0037042988 -0.054801095 0.0045888023 0.006409087
000380 3d ab 6d 3b a4 ac cb bc 5e 25 65 bc 5c 08 f4 3c
       0.0036265396 -0.024862595 -0.01398596 0.029789142
000390 07 2a 95 3c 8b 89 21 bc 66 10 b0 bb f9 85 07 bd
       0.018208517 -0.009859453 -0.0053730486 -0.03308675
0003a0 20 9a b1 3c 70 94 ec bb 42 d7 84 bc a1 55 2d 3c
       0.021679938 -0.0072198436 -0.016215924 0.010579498
0003b0 40 4e d8 3b 18 46 4b 3c 45 46 e1 bc 87 61 94 ba
       0.006601125 0.012406848 -0.027499327 -0.0011320569
0003c0 3b 3c 1c bd a1 28 34 3b 39 20 b6 3c 14 ae 20 bc
       -0.038143378 0.0027490037 0.022232162 -0.009807128
0003d0 70 05 cf bc 20 5c e2 bc 8f cc d3 3b e6 6f 06 bd
       -0.025271147 -0.02763182 0.0064635943 -0.03282156
0003e0 79 82 f0 3b 8e 49 c6 bc f4 23 24 bb 12 6b a3 3b
       0.0073397723 -0.024204995 -0.0025045844 0.004987129
0003f0 f2 5e 9f 3c cc 44 68 3b 4f 4a 25 bd 8b 1c 9f 3c
       0.019454453 0.0035441397 -0.04035407 0.01942279

bert.embeddings.position_embeddings.weight f4 [32, 16]
000000 1b 0a bd bb ee 73 d3 bc 61 8e 0c bb 5c d2 30 3b
       -0.005769027 -0.025812116 -0.002144717 0.0026980853
000010 0f bd f9 3c 92 8a 57 3b a0 3d 89 bc 6b 35 99 bc
       0.030485658 0.003288899 -0.016753018 -0.01870223
000020 c6 7e b8 bb a1 08 00 3d a2 b8 e1 3c ee b5 7c bc
       -0.005630347 0.03125823 0.02755386 -0.015424235
000030 90 8e db 3a 5c 3e a2 bc 93 cc d4 3c 24 a6 3b 3c
       0.0016750861 -0.019805126 0.025976455 0.011453185
000040 0b 75 10 bd 7b c5 98 bc f8 b1 da 3c 4f a4 84 3c
       -0.03526787 -0.018648854 0.02669619 0.01619163
000050 32 3c bf 3b d9 62 34 bc 95 06 f0 bb 2d 2a 4c 3d
       0.0058360333 -0.011009895 -0.0073250034 0.04984491
000060 5c 89 78 3b 7b ac 4e bb 20 e9 02 bd e7 31 e5 bc
       0.003792367 -0.0031535912 -0.031960607 -0.027977897
000070 c1 1d 2d 3d 0e 36 20 3c e9 6b 97 bc b8 59 ea bc
       0.042264704 0.009778513 -0.018484073 -0.028607234
000080 44 fd b1 bc 5e f3 a1 bc 17 c4 d9 3c 09 92 8f 3c
       -0.021727212 -0.019769367 0.02658276 0.01752569
000090 a5 e2 e4 3b 73 7d 47 3c 5b 1c b0 3c 09 40 b2 bb
       0.006985026 0.0121759055 0.021497896 -0.0054397625
0000a0 c4 42 b3 bc 10 99 6b bc f0 93 85 bc 88 4b 9c 3c
       -0.021882422 -0.014379755 -0.016305894 0.019078985
0000b0 b4 15 fe 3b 81 aa e8 bb 90 ae 49 bc e3 12 f9 ba
       0.007754052 -0.007100404 -0.012309685 -0.0019002821
0000c0 24 35 b0 bb a4 c0 bf 3b c3 88 8a 3c cb ef 87 ba
       -0.0053774286 0.005851822 0.016910916 -0.0010371146
0000d0 a5 8d 94 bb 49 b0 5d 3c 50 5e 6a 3c 0a 4e 83 bc
       -0.004533487 0.013530799 0.014304712 -0.016028423
0000e0 4b 77 1d 39 e5 90 24 3d de aa 07 3d a1 3c 2e bd
       0.00015017127 0.040177245 0.033121936 -0.04253829
0000f0 a7 84 da 3b a9 d8 58 bc 92 ee 09 3c 6b 1d be bc
       0.0066686454 -0.01323525 0.008418696 -0.023207387
000100 e0 d5 4d 3b dd 21 9c bc 3a 91 a3 3c c7 a3 62 bc
       0.0031407997 -0.019059116 0.01996671 -0.013832993
000110 e6 8e 93 3b a4 10 b3 3b fb d0 f1 bc a4 c2 4e 3b
       0.004503119 0.00546463 -0.029518595 0.003154912
000120 02 49 a1 bc 86 ee 82 bc f0 73 be bb a7 30 15 3c
       -0.019688133 -0.015982877 -0.0058121607 0.009105838
000130 32 3d aa 3b 30 66 2c 3d f4 b8 8b 3c d2 c9 9b bc
       0.0051952833 0.04208964 0.017055966 -0.019017134
000140 a9 a5 1a bd d2 56 6f 3c 42 95 98 3c 93 86 a3 3b
       -0.037755642 0.014608102 0.01862586 0.0049904077
000150 10 f2 aa bc da 35 22 3d 18 4a e8 bc 16 8b 04 3d
       -0.020867378 0.039602138 -0.028355643 0.032359205
000160 f6 32 22 bc f5 31 ed 3c 3f 06 84 3c 4d cc 0c bc
       -0.009899845 0.028954485 0.01611626 -0.008593631
000170 95 b9 03 bc a1 2e 39 bc e3 80 8f bc d5 fd 20 3c
       -0.008039852 -0.011302621 -0.017517513 0.009826143
000180 d6 7c 1f bc 6b de 1c 3c 1c 5c b7 bb e7 48 8a 3c
       -0.009734353 0.009574513 -0.005595697 0.016880466
000190 87 73 2a 3c 5b 5c b7 3b a0 b7 40 3b 92 53 ee 3a
       0.01040352 0.0055957264 0.0029406324 0.0018182865
0001a0 57 58 5c 3c 2a fa 5e 3b fc da 2f bb 80 2d 96 3b
       0.013448796 0.003402362 -0.0026833406 0.0045830607
0001b0 42 c8 2d 3b df 29 22 3b 1a 5f 20 3b c5 17 3d 3c
       0.0026517068 0.0024744195 0.0024470747 0.011541312
0001c0 77 35 00 3c 3e 86 00 bd 3e 1c 5b ba 50 90 33 bc
       0.007825247 -0.031378023 -0.00083583954 -0.0109597
0001d0 4a 38 ec 3b d4 ed fc 3b 64 22 98 3c 29 8e 6f 3b
       0.0072088586 0.007718781 0.018571086 0.003655324
0001e0 f2 89 e0 bc 10 69 c1 bc c5 cb 56 bc 7a 33 85 3c
       -0.027409527 -0.023609668 -0.013110106 0.016259898
0001f0 dc fc c8 3b a3 09 8e bc 49 67 3c 3c c2 c3 e2 ba
       0.006133659 -0.01733858 0.0114992345 -0.0017300772
000200 0a ff 69 3b 6e 62 6b bc 0a 20 98 bc e1 34 3c 3c
       0.0035704994 -0.014366729 -0.018569965 0.011487217
000210 0f e7 1c 3c cc fa 7b b9 86 0f 9c 3c 5e 88 b7 bc
       0.009576573 -0.00024030654 0.01905037 -0.022403892
000220 cc 3b de 3c 21 3b 46 bb 19 8d 3f bd 29 17 13 bc
       0.027128123 -0.0030247646 -0.04676542 -0.00897769
000230 e0 a7 89 bb 92 e0 79 bc 14 39 70 bc a0 71 a6 3c
       -0.0042009205 -0.015251296 -0.014662046 0.020317852
000240 18 cc 4d 3b df 92 a0 3c fb 0f be bc 7e 83 9e 39
       0.0031402167 0.019601284 -0.02320098 0.00030234078
000250 1b 42 77 3c 36 4b 96 3a c4 df 34 bc 92 90 0f 3d
       0.015091444 0.0011466506 -0.011039678 0.035049982
000260 4c cf 58 3c 54 2a 9a bb 4e d0 b1 3b 87 47 33 bd
       0.013233017 -0.004704753 0.005426443 -0.043769386
000270 f9 d9 9d 3c ac 02 66 3c 9c 5d 2b bb 55 94 5e 3b
       0.019268977 0.014038723 -0.0026148325 0.0033962924
000280 04 5c ae 3c 15 17 36 3c d8 83 36 bd 83 52 21 3b
       0.02128411 0.011113902 -0.04455933 0.0024615831
000290 27 b2 6c 3b 9d d9 b0 3c a7 64 d1 bc 73 c2 78 3c
       0.003611693 0.021588141 -0.02556069 0.015183079
0002a0 bd 68 77 3c 67 3f 1e 3d d1 f7 86 bc e8 df 13 bc
       0.015100655 0.038634684 -0.01647559 -0.009025551
0002b0 89 63 75 bc e2 ce 14 bc 90 41 70 bb 7b 8b b1 bc
       -0.014977344 -0.009082528 -0.0036660172 -0.021672955
0002c0 18 47 c3 3b 49 8a 04 3d b2 e7 d3 bb 4b 60 36 bd
       0.005959403 0.03235844 -0.006466829 -0.044525426
0002d0 39 e8 09 bd c3 73 04 bc bb 2b fa ba 41 df 21 3c
       -0.03366873 -0.00808424 -0.0019086519 0.009879888
0002e0 dc 1e c0 bb 9e 84 1e bc ee 3c 18 bc 66 18 12 bd
       -0.0058630537 -0.009675173 -0.0092918705 -0.0356678
0002f0 98 d1 e2 bb 79 bc d0 3c 04 fc 35 3d b6 83 ac 3a
       -0.006921958 0.025480496 0.044429794 0.0013161812
000300 a2 42 24 bd 8f b6 2d 3c b0 71 fb bb fe 99 00 ba
       -0.04010261 0.010602607 -0.0076734647 -0.0004905759
000310 07 3d 68 bc e4 f3 bf bc 89 51 c8 bc dd ab eb bc
       -0.014174706 -0.023431726 -0.024452941 -0.028768474
000320 30 0c 22 bc 46 c6 c7 3c 94 88 91 3c b7 93 eb bb
       -0.009890601 0.024386536 0.01776532 -0.00718924
000330 6e ee 1f 3c 35 f2 7f bc a2 7d 60 bc 29 d2 a8 bc
       0.009761436 -0.0156217115 -0.013701828 -0.020608025
000340 87 82 38 bc f4 0e 83 bc 5d a7 00 3d f7 19 cb bc
       -0.011261589 -0.015998341 0.03140961 -0.024792654
000350 ad 38 8c 3c 64 65 ac 3c a1 52 91 3c ae 0e cf bb
       0.017116869 0.02104444 0.017739596 -0.0063188886
000360 b3 f5 cc bc 54 96 a2 3c a0 76 1f bc ee ce ee bc
       -0.025019502 0.019847073 -0.009732872 -0.029151406
000370 e2 5d 0f bd 4b a9 f3 bb dc 08 88 3c 5d a8 5b 3c
       -0.035001643 -0.007435953 0.016605787 0.01340684
000380 fd 98 5a 3b 24 42 4f 3c 2a 23 60 bb 14 d1 91 bc
       0.0033355348 0.0126500465 -0.0034200647 -0.017799892
000390 bc 1c 45 3d bd 47 5e 3c bd 2b 83 3c 4a 23 65 bb
       0.048123106 0.013566908 0.016012067 -0.003496366
0003a0 89 18 c5 3b 7c eb 4a bb b7 ba ec bc 52 b7 ac ba
       0.0060148877 -0.0030963114 -0.028897626 -0.0013177192
0003b0 6a e0 57 bc 54 fc 8a bb 24 e2 04 3c 2e 08 eb bc
       -0.013176063 -0.0042415056 0.008110557 -0.028690424
0003c0 ed 4c 0d 3c a4 c5 d0 bc 92 08 c9 bb b9 37 f7 3c
       0.008624298 -0.025484867 -0.006135055 0.030177938
0003d0 f7 d4 de 3c b7 89 24 bd 52 83 9d 3c 87 a7 0e bc
       0.027201159 -0.040170398 0.019227657 -0.008706934
0003e0 b4 88 ee ba 80 2b 3a 3c 95 7a b4 3b 53 77 cb 3b
       -0.00181987 0.01136291 0.005507777 0.006209293
0003f0 19 ab 8a 3c f7 4a d4 bc de 54 3e 3c 77 ae 4d 3c
       0.016927289 -0.025914652 0.011616914 0.012553803

bert.embeddings.token_type_embeddings.weight f4 [2, 16]
000000 e3 d1 ee bc 6b e2 b2 bc 3d a7 d7 3a 16 e0 24 bc
       -0.029152816 -0.02183648 0.0016453039 -0.010063192
000010 50 6e 40 bc 8a ff 89 bc e0 1e 27 3c 39 73 5f 3c
       -0.011745051 -0.016845483 0.010200232 0.013638311
000020 fb 80 92 bc 98 fc 55 bc 47 ce ac bc 16 8f 15 ba
       -0.017883768 -0.013060711 -0.021094454 -0.00057052204
000030 29 43 d6 38 f2 82 df bb 3e 94 b0 ba 87 b7 6e 3a
       0.00010216825 -0.00682103 -0.0013471914 0.0009106327
000040 6f 59 5b bd 30 4a 9f 3a 6d af ae 3c 2b b9 8a 3c
       -0.053552087 0.0012152847 0.021323884 0.016933998
000050 43 0c 78 bc 50 89 bc bc b8 23 4d bc 3b b4 f4 3c
       -0.015139642 -0.023014694 -0.012520723 0.029871097
000060 da ef 92 3c ad 83 26 bb c9 82 94 bb fd 9e d2 bc
       0.017936636 -0.0025408075 -0.0045321924 -0.025710577
000070 2b 08 a9 3b 3d 1a ae 3a d8 65 9d 3c b0 41 f3 bc
       0.0051584444 0.0013282966 0.019213602 -0.029694408

bert.embeddings.LayerNorm.weight f4 [16]
000000 00 00 80 3f 00 00 80 3f 00 00 80 3f 00 00 80 3f
       1.0 1.0 1.0 1.0
000010 00 00 80 3f 00 00 80 3f 00 00 80 3f 00 00 80 3f
       1.0 1.0 1.0 1.0
000020 00 00 80 3f 00 00 80 3f 00 00 80 3f 00 00 80 3f
       1.0 1.0 1.0 1.0
000030 00 00 80 3f 00 00 80 3f 00 00 80 3f 00 00 80 3f
       1.0 1.0 1.0 1.0

bert.embeddings.LayerNorm.bias f4 [16]
000000 00 00 00 00 00 00 00 00 00 00 00 00 00 00 00 00
       0.0 0.0 0.0 0.0
000010 00 00 00 00 00 00 00 00 00 00 00 00 00 00 00 00
       0.0 0.0 0.0 0.0
000020 00 00 00 00 00 00 00 00 00 00 00 00 00 00 00 00
       0.0 0.0 0.0 0.0
000030 00 00 00 00 00 00 00 00 00 00 00 00 00 00 00 00
       0.0 0.0 0.0 0.0

bert.encoder.layer.0.attention.self.query.weight f4 [16, 16]
000000 de 5e 8e 3c a8 46 87 bc 26 ac b1 bc a5 40 51 3c
       0.01737922 -0.016513184 -0.021688532 0.01277176
000010 64 3a 65 3c c4 7e 67 bc d3 5b f7 bc 2d f0 14 bb
       0.013990972 -0.014129344 -0.030195152 -0.0022726164
000020 97 e6 dc 39 c9 0f 99 bc 4c 87 78 bc 5d 5b 8e 3a
       0.00042133473 -0.018684285 -0.015168976 0.0010860969
000030 c0 ad f3 bc fd 28 8b 3c 38 a1 e8 ba b2 ad 0c 3c
       -0.029745936 0.016987318 -0.0017748242 0.008586334
000040 76 1d 2b bb 53 50 68 3c ab 88 e9 b9 6e 9a 26 3c
       -0.002611009 0.014179307 -0.0004454305 0.010168655
000050 dd 71 00 bc 8f 03 9b bc 6d 9a c2 3b ed 42 ac bc
       -0.007839647 -0.018922595 0.005938819 -0.021028006
000060 2b de 9b bc 94 7c bb 3c 74 3c c7 3c 21 19 d2 3c
       -0.019026836 0.022886552 0.024320818 0.025646748
000070 66 ea 6a bb 70 b2 97 3c 74 43 66 3c 85 40 2f bc
       -0.0035845279 0.018517703 0.014054168 -0.010696535
000080 a4 ad ad bc 0d d6 86 ba 61 77 3a bb f8 f4 20 3c
       -0.021200962 -0.0010287181 -0.0028452503 0.00982403
000090 5f 2e 85 3c 67 d1 e0 bb bb 67 e7 3c 4d 26 00 3c
       0.016257463 -0.0068609 0.028247705 0.007821632
0000a0 7f 7c 0b 3d aa f1 59 3b 12 10 a9 3a fa c0 1c 3d
       0.034054276 0.0033255615 0.0012898466 0.038269974
0000b0 f4 5b 79 3d c0 39 af 3c 16 da 01 bd d8 67 2c bc
       0.06087871 0.021389842 -0.031702124 -0.010522805
0000c0 02 ff 99 3c d7 62 50 3c cf 85 21 3d 4a 8f e3 3b
       0.018798355 0.012718878 0.03943425 0.0069445716
0000d0 01 28 7c 3c fe 69 13 bc 22 20 38 bb fc 20 63 bb
       0.015390397 -0.0089974385 -0.0028095325 -0.0034657111
0000e0 ef 08 d8 3c 87 2f dd bc a2 b2 3c 3d 43 eb ea bc
       0.026371447 -0.027000202 0.046068795 -0.028676635
0000f0 cb 59 57 bb 62 70 6b bc 90 7f 5a 3b ce 26 cf bc
       -0.0032859917 -0.014370056 0.0033340193 -0.025287058
000100 8e 12 c3 3a 01 43 ae bc 07 19 c8 3b ec c6 90 3b
       0.0014882849 -0.021272184 0.006106499 0.0044182446
000110 9c 80 0e 3c 7b b7 23 3d 1d 97 e9 3c 75 5c 8a 3c
       0.008697655 0.039969902 0.02851444 0.01688979
000120 f2 2f 0d 3c 2e 44 ce bc 41 48 57 bc 49 0b 22 bd
       0.008617388 -0.025178995 -0.013139785 -0.039561544
000130 be f7 28 bc 72 18 b6 bc df e2 8b bb 22 02 d5 bc
       -0.010312973 -0.022228453 -0.0042689885 -0.026001994
000140 75 e5 6f 3c a4 4e 57 3c 4e 6a 60 3c 27 44 e3 3c
       0.014642109 0.013141308 0.01369722 0.027742459
000150 23 8c ee bb 1c 08 14 bc 85 2b 8e bc f0 31 81 bc
       -0.007279889 -0.009035137 -0.017354736 -0.015770882
000160 60 96 76 bc d9 41 06 3d fd cf 7b 3c ca d4 54 3c
       -0.015050501 0.03277764 0.0153694125 0.012990186
000170 59 b2 cf bc 5c 33 4a bb 85 5c b3 3c 0a e8 fb 3c
       -0.025353597 -0.0030853366 0.021894703 0.030750293
000180 3d 62 54 3c 3d 86 d9 bc 21 9a 77 bc d2 68 7b bc
       0.012962875 -0.026553268 -0.015112431 -0.015344815
000190 58 78 6c 3c 3e 6f 21 bc e7 ea 2f bc e7 8b b3 bc
       0.014432989 -0.009853182 -0.010737157 -0.021917297
0001a0 5b 84 32 bd 44 e4 4d bc d9 04 04 3c 5e 43 fb 3c
       -0.043583255 -0.01256663 0.008057796 0.030671772
0001b0 24 e8 94 3b 54 26 36 3d 98 11 08 3c 07 50 1b 3d
       0.004544275 0.044470146 0.008304976 0.037918117
0001c0 e2 06 80 3b 97 4e 99 3c d9 03 bc bc 1d 6a f1 3b
       0.0039070705 0.018714232 -0.022951053 0.007367386
0001d0 b4 3e d1 bb e7 d1 e9 bc e1 c0 62 3d e2 1e 09 3c
       -0.0063856486 -0.028542472 0.055359725 0.008369179
0001e0 b9 b0 2c 3c ce 78 ee bb 7e 90 aa bb 9e 67 a5 bb
       0.010540181 -0.0072775846 -0.005205213 -0.0050477525
0001f0 ce 7d e5 bb 5b 92 2a bb 2f 37 89 3b 42 2e 55 3b
       -0.0070035225 -0.0026027176 0.0041874866 0.0032528793
000200 60 56 03 bd c9 22 a0 ba 59 cc a8 bb d8 b8 34 bd
       -0.032064795 -0.0012217398 -0.0051513133 -0.044121593
000210 af 58 5d 3c ca 3e d9 bc 93 b6 dc bb ce 36 81 bb
       0.013509913 -0.026519198 -0.0067356317 -0.003943301
000220 8e 49 ac bc 19 da 38 bc fe ea 3e 3c e7 b0 df bc
       -0.021031167 -0.011282467 0.011652706 -0.027306033
000230 67 cb ec 3c ee aa 88 bb 38 9f 02 bc da 7f 04 3c
       0.028905584 -0.004170767 -0.007972531 0.008087123
000240 a5 19 9a 3b eb 1f fe bc 33 85 e2 bc 06 f8 64 3b
       0.004702764 -0.031021079 -0.027651405 0.0034937873
000250 0b 1c 91 3c b3 fd be 3c 30 00 02 3b 0f 8c 16 3c
       0.017713567 0.023314333 0.0019836538 0.009188666
000260 e8 b9 11 bd 8f 49 91 3c f3 fb 46 3c 1d 96 05 bc
       -0.035577685 0.01773527 0.01214503 -0.008153466
000270 12 f1 8b bb 33 c4 1f 3d 52 49 92 bc ba 89 05 bc
       -0.004270681 0.03900547 -0.017857227 -0.008150512
000280 51 58 0f bc 44 ae a7 bc 78 2d ba 3b 8e 3d 5e 3c
       -0.008749084 -0.020468839 0.00568169 0.0135644805
000290 12 f6 08 3d 3b f4 15 bc bb fe 19 3c 62 c6 0f bd
       0.033437796 -0.009152467 0.009399111 -0.035101302
0002a0 0e b7 eb 3c b8 c2 e4 3c ec 11 d5 bb 7a 45 8e 3b
       0.02877381 0.02792488 -0.0065023806 0.0043417783
0002b0 e5 56 c9 3a ef 27 26 bc c0 bd 4a bb 3d c1 11 bc
       0.001536098 -0.010141357 -0.0030935854 -0.008896169
0002c0 63 50 75 bc 62 c2 06 3c a5 ce e1 bb 05 4e d1 bc
       -0.014972779 0.008225055 -0.006891089 -0.025549898
0002d0 2e 80 d5 3c f0 5d 50 3c 3b 67 b4 3c f2 ab 92 3b
       0.026062097 0.012717709 0.02202188 0.004476064
0002e0 96 9e 8f 3b b7 6d 14 bd f1 24 94 3b 6b 92 19 3c
       0.0043829186 -0.036237445 0.0045210053 0.009373288
0002f0 3b fb c4 bc 73 81 a2 bc 52 f4 04 3c cb ec e7 bc
       -0.024045577 -0.019837117 0.008114891 -0.028311154
000300 fe 66 5c 3c ad 60 3a bc 29 a0 84 3c cb 2b 1c bb
       0.01345229 -0.011375588 0.016189652 -0.0023829814
000310 f1 aa 92 3c 5b 00 5b 3c 4e 9f a4 3a 87 c3 ac bc
       0.017903777 0.013366784 0.0012559684 -0.021089328
000320 0e 33 06 bb 15 cc 3b bb 3b 28 32 bc 72 28 ed 3c
       -0.0020477208 -0.0028655578 -0.0108738495 0.02894995
000330 29 ed ed 3b e2 1b a6 3b ce b8 bc 3c 90 c5 79 bc
       0.0072609377 0.005069242 0.02303734 -0.0152448565
000340 bd 68 17 bc 75 d2 8b 3c e9 39 b2 bc f2 32 c1 bb
       -0.00924128 0.017068127 -0.02175613 -0.0058959657
000350 b6 9d 1e 3a cb e0 0c bd 01 af dc 3b 50 90 81 bc
       0.00060507224 -0.034394067 0.0067347293 -0.015815884
000360 55 36 87 3c eb 00 7c bc ed 02 20 3d 59 c2 0a bc
       0.0165054 -0.015381078 0.03906529 -0.008469188
000370 cb 81 e6 3b cf 1b 09 bc 75 ef 50 bb 37 53 0e 3c
       0.0070345155 -0.0083684465 -0.0031881009 0.008686832
000380 47 e6 1c 3c 2d 78 c3 3c e0 ba e3 bc e7 94 b7 3c
       0.009576387 0.023861015 -0.02779907 0.02240987
000390 82 ae 28 3a df 70 8d 3c 0e d5 b9 3c 00 b1 b8 bc
       0.0006434695 0.017265735 0.0226846 -0.022545338
0003a0 b0 29 2a bd 82 d2 96 3b 05 66 74 3b c9 a9 c8 bc
       -0.041543663 0.004602731 0.0037292254 -0.024495022
0003b0 80 78 a1 bb d2 49 0e bc fd 9f 39 bd b6 3a 8b bb
       -0.004927695 -0.008684592 -0.045318592 -0.0042489422
0003c0 f4 aa 28 bd 9d 89 f9 bc 00 ca a4 bb c9 47 4c 3c
       -0.04117866 -0.030461127 -0.005028963 0.012468287
0003d0 b4 a6 dd 38 9c 33 af 38 d7 07 2f bc f8 c8 b3 3b
       0.00010569152 8.354263e-05 -0.0106830215 0.005486604
0003e0 bd 87 81 3b 07 88 86 bc 90 b3 c6 3c de 82 e1 3c
       0.003952949 -0.016422285 0.024255544 0.027528223
0003f0 95 f6 82 3b 6b bd b3 3b 41 dc 2e 3c 95 3b 86 bc
       0.00399668 0.005485227 0.01067263 -0.016385833

bert.encoder.layer.0.attention.self.query.bias f4 [16]
000000 00 00 00 00 00 00 00 00 00 00 00 00 00 00 00 00
       0.0 0.0 0.0 0.0
000010 00 00 00 00 00 00 00 00 00 00 00 00 00 00 00 00
       0.0 0.0 0.0 0.0
000020 00 00 00 00 00 00 00 00 00 00 00 00 00 00 00 00
       0.0 0.0 0.0 0.0
000030 00 00 00 00 00 00 00 00 00 00 00 00 00 00 00 00
       0.0 0.0 0.0 0.0

bert.encoder.layer.0.attention.self.key.weight f4 [16, 16]
000000 95 9d 56 bb 34 a9 2b bc f2 04 ca 38 32 44 9c 3c
       -0.0032747735 -0.010477353 9.633032e-05 0.019075487
000010 d9 16 cc 3c e6 6e 3d bb 61 ee 7c bc 49 3f 2d 3c
       0.024913238 -0.0028905212 -0.015437693 0.01057417
000020 b2 86 1c bd fd 56 a8 bb c9 1b 03 3c ea 8c 47 3c
       -0.038214393 -0.005137323 0.00800223 0.012179593
000030 c2 3b a1 3c 7d d6 51 3c 69 44 22 3d d7 1c ed 3a
       0.019681815 0.012807486 0.039616022 0.001809026
000040 69 6c bf 3c 8a f1 66 bd 22 09 c1 ba d7 50 0b bd
       0.023367124 -0.056382693 -0.0014727453 -0.03401264
000050 9d a3 88 bb 22 7c 1e bc 93 65 94 3c 3e 77 1f bc
       -0.004169895 -0.00967315 0.01811484 -0.009733019
000060 7e 72 ee 3c ee 24 70 3c 4b c2 9f bb 9b 2c dd 3c
       0.029107329 0.014657242 -0.0048754564 0.026998809
000070 4a 88 0b 3d 39 dc 9d bb cb a0 de bb 49 6c 0c bc
       0.034065522 -0.0048175124 -0.0067940704 -0.008570739
000080 36 93 91 bc 74 06 8b bb 07 c4 7d 3c 05 72 26 3c
       -0.017770391 -0.0042427126 0.015488631 0.01015902
000090 7d 83 17 3d 0d 5e 96 3b a3 46 fe bc 24 0c 9a 3c
       0.03699063 0.0045888484 -0.031039542 0.018804617
0000a0 ae 8d c3 bb 9b c3 ea 3b ca f7 d7 3c a1 97 75 3c
       -0.0059678173 0.0071644313 0.026363272 0.014989764
0000b0 3e 93 32 bc 10 cc e6 3c eb 74 96 3a 3b 74 73 bb
       -0.010899363 0.028173476 0.0011478936 -0.0037148136
0000c0 19 64 82 bc 6f e3 0c 3c 37 43 08 bc f4 34 f9 3b
       -0.01591687 0.008599146 -0.0083168065 0.0076051895
0000d0 2c 6d d9 3c b4 d5 10 ba d5 e4 c9 3b 07 bd b3 3c
       0.026541315 -0.00055250083 0.006161312 0.021940721
0000e0 6d 44 35 bc 86 37 af 3c 65 d8 02 bd ae 4e f9 3b
       -0.011063677 0.02138878 -0.03194465 0.0076082563
0000f0 00 81 9a bc 92 c3 db bb ef 73 b8 bc 8e 2f f6 bc
       -0.01886034 -0.0067066634 -0.022516219 -0.030051973
000100 e0 a7 de ba 81 9c 66 3c d8 9d 6b bc 37 f1 bf bc
       -0.0016987287 0.014075399 -0.014380895 -0.02343045
000110 fe e3 d7 bc c7 80 bd bb 77 31 e8 3a 25 6f ea bc
       -0.026353832 -0.0057831737 0.0017714937 -0.028617451
000120 1c 16 7c bb 77 a3 d5 3c d3 41 ab 3c 5b 32 ef 3c
       -0.0038465327 0.026078923 0.02090541 0.029198816
000130 f4 54 b3 bc 9b b8 1b bc 0d 32 1a bb 90 f8 e6 bb
       -0.021891095 -0.009504463 -0.0023528368 -0.007048674
000140 70 5c 1c 3c d7 47 80 bc 99 9b 4f bd 45 ed af bc
       0.009543523 -0.015659256 -0.0506855 -0.021475444
000150 93 e9 6e bc d8 d6 23 ba ed 0b 8d 3b 9d 0c c7 bc
       -0.014582056 -0.0006249971 0.0043044 -0.024298007
000160 0d 4a 44 3d 3f 2a 9b 3c 82 70 40 bd 29 6c 4b bd
       0.047922183 0.018941043 -0.046982296 -0.049663696
000170 6d e3 a6 bc 00 2e 60 bc ce 94 f0 3c 96 80 0b 3d
       -0.020372117 -0.013682842 0.02936783 0.034058176
000180 8f 3f c0 3c ab 41 62 bb 52 fb 81 bb db 5f be bc
       0.023467807 -0.0034524004 -0.0039667273 -0.023239067
000190 8a 2b 60 bc ae cc 7b bc be 69 d9 3c 40 a7 d2 3c
       -0.0136822555 -0.015368624 0.02653968 0.025714517
0001a0 17 d7 11 3c 8b 99 dd 3b 7b 26 af bc 92 46 64 3d
       0.008901379 0.0067626885 -0.021380654 0.055731364
0001b0 47 f7 07 bd 18 24 94 3a 1d ee 29 bb 01 fc 4a bc
       -0.033194806 0.0011302261 -0.002592928 -0.012389184
0001c0 0b f3 94 3b 0b e9 cb 3c e2 b2 02 3c 7e 92 5a bc
       0.0045455745 0.024891397 0.007977219 -0.0133405905
0001d0 ea 2c 4e 3b 9d 19 de bc 40 05 01 3c 82 fe 95 bc
       0.0031459876 -0.027111823 0.007874787 -0.018309835
0001e0 9c 81 eb bb 30 da b5 bb 17 4d f9 bc be 14 58 bc
       -0.0071870815 -0.0055496916 -0.030432267 -0.013188539
0001f0 f8 9e 74 3c 42 72 6e 3c c1 b9 c6 3b e6 ad 5d 3b
       0.014930479 0.014553608 0.006064624 0.0033825575
000200 fb 0e b3 bc 33 16 74 bd 3e 57 1e 3b c2 76 61 bc
       -0.02185773 -0.059591483 0.0024160887 -0.013761224
000210 7e fb 30 bc fc b3 96 3c 32 5b cb bb e6 b8 cc 3c
       -0.010802148 0.01839637 -0.0062059397 0.02499051
000220 b6 3e 13 3d 74 63 38 3c b0 88 1b bc 40 21 37 3c
       0.035948478 0.01125418 -0.009493038 0.011177361
000230 0a 1d e4 3c 15 ed 51 bc 57 ee 86 bc ec bb d0 bc
       0.027845878 -0.012812872 -0.016471071 -0.025480233
000240 27 4e dd b9 77 ce 19 bd 2c 1b 5c bc f8 70 e6 bb
       -0.00042210633 -0.037550416 -0.013434213 -0.00703251
000250 fb 22 b8 bb 82 a8 35 3c aa cc db bc c7 ae 08 3d
       -0.0056194044 0.011087539 -0.02683099 0.033369806
000260 e9 f4 31 bc fe 5e bb 3c 6e 77 06 bc 6b e7 c2 3c
       -0.010861614 0.022872444 -0.008207185 0.02379199
000270 f8 11 10 bc 75 f1 02 bc 6e ac 8c bc d6 0c a2 3c
       -0.008793347 -0.007992138 -0.017172065 0.019781511
000280 74 4e ca bc c1 9c d8 3c 32 00 bf bc 0b 50 ce bb
       -0.024695612 0.026441934 -0.023315523 -0.006296163
000290 4c 43 58 bc 1d f1 9a 3c f0 e4 e6 3b 30 12 00 3d
       -0.013199639 0.0189138 0.0070463344 0.031267345
0002a0 74 28 ab 3b 18 da ea 3c 7b 5c c7 bc 96 be 9e 3c
       0.0052233282 0.028668448 -0.02433609 0.019377988
0002b0 a8 a8 a0 bb 09 d0 2e 3c c6 24 1d bd 20 ab 1e 3b
       -0.004902918 0.010669717 -0.038365148 0.0024210885
0002c0 24 32 cf bb 0d 22 4c bc a7 45 d5 bc ae 8b 2a b9
       -0.006323116 -0.01245929 -0.02603419 -0.00016264498
0002d0 21 a2 c1 bb 06 68 c0 bb e5 f1 d1 bb 8f 9e 91 bc
       -0.00590922 -0.0058717756 -0.00640701 -0.017775802
0002e0 60 aa dd 3b f4 dc 9d 3b a0 68 6a bd a6 d6 05 3c
       0.006764695 0.0048175994 -0.057228684 0.008168852
0002f0 99 8d 27 bb 4a 85 df bb 56 c4 08 3d d9 3a a6 bb
       -0.0025566577 -0.006821309 0.033390366 -0.005072933
000300 9d 84 0d 3c f8 80 f3 3c 24 22 65 3c 66 38 a2 3c
       0.0086375745 0.029724583 0.013985191 0.019802283
000310 0f b6 89 bb d7 c0 ed 3c e7 7c 36 3b 47 bb 88 3c
       -0.0042026113 0.029022617 0.0027845444 0.016690863
000320 98 e5 f1 3b 09 b3 66 bc ad 98 27 3d 12 76 18 bc
       0.007382106 -0.014080771 0.040917087 -0.009305494
000330 f4 2c 18 3d a0 93 c9 3b b2 94 04 bd 9d 12 d2 3c
       0.037152246 0.0061516315 -0.03236837 0.025643641
000340 44 0c d9 bb 5c 98 58 3c a5 d4 1e 3c 61 21 bb bc
       -0.0066237766 0.013219919 0.009694253 -0.022843065
000350 72 90 9d 3b 73 f8 78 3c 75 8b 9a 3c 4c 2b 9d 3c
       0.004808479 0.015195954 0.018865326 0.019185685
000360 cf 02 25 3b 36 ef 94 3c 7b 9c ed bc c1 d4 b4 bc
       0.0025178676 0.01818047 -0.02900528 -0.022074105
000370 73 80 29 3c e4 fd 9a bc 0b 5a b9 bc f9 01 1b bc
       0.010345566 -0.018919893 -0.022625944 -0.00946092
000380 3b 51 d4 ba cd e5 3a 3c 29 d9 65 3c 73 d0 1c 3b
       -0.0016198525 0.011407328 0.014028826 0.0023927956
000390 89 33 91 bc 12 71 5b bc 8e 10 be ba 56 f4 ab 3c
       -0.01772477 -0.013393657 -0.0014500783 0.020990532
0003a0 3e 21 a1 3c f8 11 91 bc dd 73 3e 3c 5b ad 8a bc
       0.019669171 -0.017708763 0.011624304 -0.016928365
0003b0 60 95 36 3d 44 92 2d bc b3 05 a7 bc 39 4d b5 3c
       0.04457605 -0.0105939545 -0.02038846 0.02213155
0003c0 c7 98 3f bb 92 b3 99 ba d2 cd 7a 3c 49 db 1a 3c
       -0.002923535 -0.001172649 0.01530786 0.009451696
0003d0 ef ff 35 bd b8 c7 5d bc 69 db 11 bc 35 0d b2 3b
       -0.04443353 -0.013536386 -0.008902409 0.0054337033
0003e0 87 f2 aa 3d cf 26 b7 ba d2 13 6e bc d5 d4 b8 bc
       0.0834704 -0.0013973358 -0.014531093 -0.022562424
0003f0 85 cd 60 3b 0b 0e 9c bc 09 f2 28 3b 19 22 fe bb
       0.0034302187 -0.019049665 0.002577903 -0.0077555296

bert.encoder.layer.0.attention.self.key.bias f4 [16]
000000 00 00 00 00 00 00 00 00 00 00 00 00 00 00 00 00
       0.0 0.0 0.0 0.0
000010 00 00 00 00 00 00 00 00 00 00 00 00 00 00 00 00
       0.0 0.0 0.0 0.0
000020 00 00 00 00 00 00 00 00 00 00 00 00 00 00 00 00
       0.0 0.0 0.0 0.0
000030 00 00 00 00 00 00 00 00 00 00 00 00 00 00 00 00
       0.0 0.0 0.0 0.0

bert.encoder.layer.0.attention.self.value.weight f4 [16, 16]
000000 d4 fe 33 bc 02 4e 61 bb 17 2e e4 bb 21 72 27 3c
       -0.010986049 -0.0034378772 -0.006963502 0.010220082
000010 d7 f2 d3 bb a5 7b f5 3a dd 76 b9 ba f0 98 be bb
       -0.0064681577 0.0018728866 -0.0014149804 -0.0058165714
000020 79 a0 74 3c 2f 68 96 3b 41 2c e4 3b 6a 4c 7e 3c
       0.014930838 0.0045900564 0.0069632833 0.015521148
000030 a0 0b fc 3a 14 10 a5 bc c4 90 c3 bb 90 d2 d0 3b
       0.0019229539 -0.020149268 -0.005968185 0.0063727573
000040 7c c8 54 3c af c8 b6 3c 69 c1 25 3c 04 c4 41 bd
       0.012987252 0.02231249 0.010116913 -0.047306076
000050 cc 36 db 3c 43 8f 00 3c ca 56 72 3c d6 3b 05 bd
       0.026759528 0.007846656 0.0147912 -0.032527767
000060 8f 8e 2b 3b d1 66 1b 3c c2 80 43 3c c0 bb a1 3c
       0.00261775 0.009484963 0.011932554 0.019742846
000070 a1 d4 84 bc 9c fb 76 3d 7d b7 cc bc b0 c7 f3 3c
       -0.01621467 0.060298547 -0.024989838 0.029758304
000080 c6 31 98 3c 1b e0 b0 3a aa 77 7c bc 7c 9b a6 bc
       0.018578421 0.0013494523 -0.0154093895 -0.020337813
000090 09 0d b0 3c ac a5 7d 3c db 14 b9 3c 4a 1d 2f bc
       0.02149059 0.015481394 0.022592952 -0.010688135
0000a0 ac b6 fe 3b 7c 13 26 3c a7 c3 4c bb 2d 26 86 bc
       0.007773241 0.010136481 -0.0031244548 -0.016375626
0000b0 56 2d 1e 3b 0e 81 b6 ba 2e ad 90 3c 34 d9 d0 3c
       0.002413591 -0.0013923959 0.017660704 0.025494196
0000c0 25 98 13 3d b3 c3 67 3c 4c 82 de bb a6 ca b7 3c
       0.03603377 0.014145779 -0.006790435 0.022435497
0000d0 78 4a 3c 3d 75 59 5c bb c7 92 15 bc 26 f6 ef bc
       0.045969456 -0.0033622656 -0.009129233 -0.029292177
0000e0 97 54 82 3b c0 83 d2 bc a2 40 27 bd df dd 92 3c
       0.003977369 -0.025697589 -0.040833123 0.017928062
0000f0 17 dd dd 3b a3 01 13 bb 06 f4 73 3c d8 c4 9e 3b
       0.0067707407 -0.0022431395 0.014889723 0.004845243
000100 66 2e 8d 3c 3e b9 ef bc fe aa 00 bc 98 04 94 bc
       0.017234039 -0.029263135 -0.007853268 -0.018068597
000110 5e 41 0f 3c c2 18 88 ba 53 5e 45 3a 3c 0a b2 3a
       0.008743612 -0.0010383355 0.0007529009 0.0013583372
000120 e7 6e 06 bc 46 39 ab 3c ab cb 2e bd e6 ff d4 3c
       -0.008205152 0.020901334 -0.0426747 0.026000928
000130 5e 78 58 3d 6e 69 54 ba 26 49 48 3c fb 64 b0 3c
       0.052849166 -0.00081028685 0.012224471 0.021532526
000140 95 86 10 3c 3a 3e 85 ba 08 87 8f bc 10 bc e1 ba
       0.008821149 -0.001016564 -0.017520443 -0.0017222185
000150 99 3e 27 3c 07 7b a4 bc 2e 54 f0 39 09 5f 8f 3b
       0.010207796 -0.020078195 0.00045839086 0.0043753427
000160 ea 5b 1d 3d 7e 3e 17 3d be 62 5e ba 3c 33 dd bc
       0.038417734 0.03692483 -0.00084833417 -0.02700197
000170 02 19 14 3c 0d 05 3b bc ac ff 7e 3c b2 85 57 bc
       0.009039165 -0.011414778 0.015563887 -0.013154434
000180 c2 bc db bb fd bf 48 bd 65 f0 8c bc 2e 0f dc 3c
       -0.0067058513 -0.04901122 -0.017204473 0.026862707
000190 de f8 c1 3b d5 a5 50 3c fd 54 28 bc 9b eb 86 bc
       0.00591956 0.01273485 -0.010274169 -0.016469767
0001a0 23 36 7f bc 95 00 75 bb cf 71 22 bc e1 19 33 3c
       -0.015576872 -0.003738438 -0.009914829 0.010931463
0001b0 9d 3f b0 3c fd 50 f2 bc ca 97 cc bb b5 54 ee bb
       0.021514708 -0.029579634 -0.0062436806 -0.0072732815
0001c0 7e 90 b9 bb d7 57 8f 3c d2 30 b1 3b 93 c5 38 3b
       -0.0056629768 0.01749794 0.005407431 0.0028193935
0001d0 80 b9 1a 3c bb 04 81 3c 39 66 27 3c 87 4f 1a bd
       0.009443641 0.015749326 0.010217243 -0.0376735
0001e0 38 e0 f6 3c a9 f8 91 3a b8 be 8e bc f2 ef 0f 3b
       0.030136213 0.0011136729 -0.017424926 0.0021963087
0001f0 13 a3 7c bc 46 e4 7a bc ab 3f 9e bc ee 45 24 3b
       -0.015419739 -0.015313214 -0.019317469 0.0025066095
000200 14 29 c5 3c e4 2c 03 bd be e9 be bc 8b 06 b8 bc
       0.02406744 -0.032025233 -0.023304816 -0.022464057
000210 0f 1c 2c bc ab 32 19 3b f3 b2 ba ba 89 84 8c bb
       -0.010504737 0.0023376148 -0.0014244005 -0.0042882604
000220 5a 8f 0d 3d 2e 42 af bc 9e 0e ef bb 80 9f 14 3c
       0.03456054 -0.021393862 -0.0072954437 0.009071231
000230 87 42 92 3c f3 a5 f2 3a eb be ee 3b 33 56 11 bb
       0.017853988 0.0018512591 0.007285943 -0.0022176623
000240 41 26 38 bb b0 46 38 bd 2f b1 44 bb 80 9d 3b 3c
       -0.0028098973 -0.044989288 -0.0030012836 0.011451125
000250 1b 70 bb 3b 07 f4 61 bc 89 80 9d 38 03 59 9d ba
       0.005720151 -0.013791091 7.510285e-05 -0.0012004677
000260 29 83 9e bc 66 86 7b bb cd b8 24 3c a6 22 c2 3c
       -0.019349651 -0.0038379668 0.010053826 0.023698162
000270 00 c9 e9 bc aa fd 17 ba 26 64 f2 bc 0a 27 b8 bb
       -0.028538227 -0.0005797992 -0.02958877 -0.005619888
000280 8b 58 34 bc cf c0 51 3c b7 35 08 3c 4f 70 7d bc
       -0.011007438 0.012802317 0.008313588 -0.015468671
000290 74 7e 4e bc d6 81 0f bd cf 4d 30 bd 14 2a bc bc
       -0.012603391 -0.03503593 -0.043042954 -0.022969283
0002a0 45 cd bf bb 3c 2c 27 3d 52 db d8 bc af 58 8f b9
       -0.0058533275 0.04081367 -0.026471768 -0.0002734116
0002b0 fe 3d ba bc 26 de f2 3b cf f2 4f 3c 0e 67 e4 bc
       -0.022734638 0.007411736 0.012692167 -0.027881172
0002c0 69 cd 37 3d 38 19 92 3c 35 b6 f9 3b b5 2e 42 bb
       0.04487363 0.01783429 0.0076205977 -0.002962989
0002d0 58 80 9e bc d5 d7 c4 3c 01 65 b3 3c b6 12 0f bc
       -0.019348308 0.024028698 0.021898748 -0.008732488
0002e0 b5 fb 1e 3c 7c 40 56 3c 5c ea b9 bc 89 48 8a 3c
       0.009703566 0.013076898 -0.02269476 0.01688029
0002f0 8b 78 c8 3b 14 39 01 3d 1b 25 16 bc 6f c5 dc 3c
       0.0061178855 0.031548575 -0.00916412 0.026949612
000300 6f 3e ca 39 74 ca 0c bc a5 45 5f bb bc 1b 36 bc
       0.0003857496 -0.00859319 -0.003406861 -0.011115011
000310 f7 57 e2 ba ae 80 16 3c a1 46 84 3c e0 89 7b bc
       -0.0017268647 0.009185953 0.01614696 -0.015352696
000320 02 88 d9 bc 73 24 2c 3d bd f4 0d bc d0 e4 13 3b
       -0.026554111 0.04202695 -0.008664307 0.0022566803
000330 bb 84 4f 3a 7c e5 f7 bc 15 bf 06 3b 79 49 0a bd
       0.0007916202 -0.030260794 0.002056067 -0.033761475
000340 e5 06 11 bc 8f 2e f3 3b 30 c3 15 bc 4a 91 cf bc
       -0.008851741 0.0074213217 -0.009140775 -0.025337834
000350 7e cf 9d bb 64 72 0f bb 8b a2 19 bb 11 e1 18 bc
       -0.0048159948 -0.002188825 -0.002344283 -0.009331004
000360 99 85 cc 3c df 3b 11 bc 55 1d 5a 3d 85 21 be bc
       0.024966048 -0.008864372 0.05325063 -0.023209343
000370 b5 bd 66 3c 17 e3 92 bc 18 89 44 bc 98 2c 80 3c
       0.014083316 -0.01793055 -0.011995576 0.015646264
000380 63 a9 18 3c c2 b1 c6 bc 33 38 e3 ba 3c ec c7 3c
       0.009317729 -0.024254683 -0.0017335474 0.024404638
000390 80 52 6d bc 35 87 f3 3c bd 5e 9d bc 40 c3 88 3c
       -0.014485002 0.029727558 -0.019210214 0.016694665
0003a0 07 d4 8d bc 38 02 fb ba 97 b8 8e bc 4f 45 b8 bc
       -0.017313017 -0.0019150442 -0.017422004 -0.022493986
0003b0 b5 08 ef 3b 02 d0 b8 bb 7b b2 aa bb cb 39 28 3d
       0.007294739 -0.005640031 -0.005209265 0.04107074
0003c0 c6 38 aa bc bc ab 93 3c 29 e3 34 bc 80 5f b3 bb
       -0.020779025 0.018026225 -0.011040487 -0.005474031
0003d0 ad 95 b8 bc 80 04 cb 3c f7 e7 e6 bb 17 22 21 bd
       -0.022532308 0.02478242 -0.0070466953 -0.03933915
0003e0 0a 34 cd 3b 67 30 9f bc d9 c2 a4 39 f7 42 07 bb
       0.006262307 -0.01943226 0.0003142569 -0.002063928
0003f0 20 3a 20 3c f8 f1 90 bc ee e6 25 bd a5 dd 83 bc
       0.009779483 -0.017693505 -0.040503435 -0.0160969

bert.encoder.layer.0.attention.self.value.bias f4 [16]
000000 00 00 00 00 00 00 00 00 00 00 00 00 00 00 00 00
       0.0 0.0 0.0 0.0
000010 00 00 00 00 00 00 00 00 00 00 00 00 00 00 00 00
       0.0 0.0 0.0 0.0
000020 00 00 00 00 00 00 00 00 00 00 00 00 00 00 00 00
       0.0 0.0 0.0 0.0
000030 00 00 00 00 00 00 00 00 00 00 00 00 00 00 00 00
       0.0 0.0 0.0 0.0

bert.encoder.layer.0.attention.output.dense.weight f4 [16, 16]
000000 96 83 ac 39 44 61 93 bc 80 3e 14 bd 5d 54 8c 3c
       0.00032904436 -0.017990716 -0.036192417 0.017130071
000010 fe 3d a1 bc 83 6a 02 bc 55 59 d5 bb 98 6e db bb
       -0.01968288 -0.007959965 -0.0065108933 -0.0066965334
000020 63 30 0e 3d c2 93 97 3c 10 69 c9 bb 2b fa 5b bc
       0.034714114 0.018503074 -0.0061465576 -0.013426344
000030 7c 35 cb bb d7 33 70 bc a0 4d ed 3c 4a 31 c9 3b
       -0.006201444 -0.014660797 0.028967679 0.006139909
000040 6a 1a f0 3b 6f c5 a7 3c 07 27 d3 3b 57 e7 dc 3c
       0.0073273676 0.020479886 0.0064438614 0.02696578
000050 ab 19 70 3c 38 4a 39 3d 49 ef 3a bd 6e 9f 0d bd
       0.014654557 0.045236796 -0.045638356 -0.034575872
000060 6f 4e 20 3c 84 ef 64 3c 0f 79 b4 3c 52 4a c1 bc
       0.009784325 0.013973121 0.022030381 -0.023595009
000070 8a c0 ae b8 85 e9 e6 bb b6 7a 30 bc 62 4d be bc
       -8.33283e-05 -0.0070468807 -0.010771444 -0.023230258
000080 8e df 6b 3a 89 a1 11 bb b4 d2 ae bb d2 3e df 3b
       0.0008997851 -0.0022221527 -0.0053351764 0.0068129087
000090 6d 7b b8 b9 82 fb 15 3b 0c d8 9e bb a6 99 49 3c
       -0.00035187174 0.0022885506 -0.004847532 0.012304699
0000a0 bc 0e 28 bb 8b ed 81 bb a0 d9 17 3c 99 dd 1a 3c
       -0.0025643548 -0.003965085 0.009268194 0.009452247
0000b0 30 f1 76 3c 83 7d 72 3c f7 7e 8d 3c 9a 77 12 bb
       0.015072152 0.014800432 0.017272456 -0.002234912
0000c0 9c 21 af bb 10 0e 97 3c 09 a3 ea bc 8b 3b 2a bd
       -0.0053445827 0.018439323 -0.028642194 -0.04156069
0000d0 e5 3b b8 bc 4f 58 5d 3d c7 ba 09 3b bb cf 88 bc
       -0.022489497 0.054039296 0.002101587 -0.016700616
0000e0 a7 d8 16 bc 9b 14 d2 bc dc db 54 3b a2 35 5b bb
       -0.009206927 -0.025644591 0.003247968 -0.0033448716
0000f0 79 6a 58 bc 52 62 b4 bb 22 85 08 3c 51 56 0f bc
       -0.013208979 -0.0055048848 0.008332523 -0.008748607
000100 80 83 71 3c f9 15 86 bc 02 4d 9b bc 87 3a b0 3c
       0.014740825 -0.0163679 -0.018957619 0.021512283
000110 cb 02 9c 3c 94 d4 08 3b 0b c0 3d 3b fb 76 03 bc
       0.0190443 0.002087866 0.0028953578 -0.008023973
000120 04 bc c1 3c 4f c3 50 3d 07 1a d1 3c 88 d2 1a b9
       0.023649223 0.05096751 0.025525106 -0.00014765013
000130 aa 64 26 bc cf d3 0e 3c 3c c2 45 3b 65 e5 d9 3a
       -0.010155836 0.008717491 0.0030175587 0.0016624151
000140 b2 ca 28 bd dd fa 22 bd dc 8a 02 bc 0e 24 da 3b
       -0.04120893 -0.039790023 -0.007967677 0.00665713
000150 d4 fc 43 3c cb bd 9e 3c ca 95 4a 3c 06 b5 df 3c
       0.011962134 0.01937761 0.012364814 0.027307998
000160 99 4e 17 3c 90 99 0e 3d 46 f9 af bc 1e 29 07 3c
       0.009235048 0.034814417 -0.021481168 0.008249549
000170 a4 dc 5b bc 76 e1 91 3b 72 b7 84 bc 1f 9e 0d bd
       -0.013419304 0.004451926 -0.016200755 -0.034574624
000180 24 9b 1b bc 19 eb b4 3c 8f 74 09 bd 41 d7 ff bb
       -0.009497438 0.02208476 -0.033558425 -0.0078076427
000190 f0 b3 92 bb e7 5b 40 bc 0c 4c 8c 3a f3 d6 74 3c
       -0.0044770166 -0.011740661 0.0010703816 0.014943826
0001a0 2d 09 2d bd ae 4a 44 bb 2d a8 92 3b f2 63 d4 3c
       -0.04224508 -0.002995174 0.0044756145 0.025926564
0001b0 87 10 ce ba 26 98 1b 3c b2 aa 59 3c 5d 37 15 bd
       -0.0015721478 0.009496724 0.013285326 -0.03642975
0001c0 e9 21 a0 bc 8c de ee 3b 4f 7e ab 3c 72 53 8e bb
       -0.01954742 0.0072897132 0.020934252 -0.0043434436
0001d0 d5 9e 67 3d 52 5f a7 bc ad 8f c1 bc db ee b2 3b
       0.05654796 -0.020431194 -0.02362808 0.0054606027
0001e0 64 ec cd 3b 58 07 9a 3c 0f ab 79 3d b5 76 b3 3a
       0.0062842835 0.01880233 0.06095415 0.0013691994
0001f0 44 b1 8b 3b 2f cc cb 3c c6 39 cb bc 4e 6c 3a bc
       0.004263075 0.024877636 -0.024807822 -0.011378361
000200 c7 84 81 ba e6 6e bd 3b cc 24 ff 3c 3e 92 fd 3c
       -0.000988149 0.0057810424 0.031145476 0.030953523
000210 ab 74 d5 3b b7 0f 92 ba 0f 63 c2 3a ef 03 95 bb
       0.006514152 -0.0011143599 0.0014830547 -0.004547588
000220 cf 6e 29 3b 13 a1 a7 bb b8 40 22 bd 30 3d 37 3b
       0.00258534 -0.005115637 -0.0396125 0.0027960055
000230 7d 62 60 bc 89 77 87 ba 2c 01 57 3b 97 95 90 3c
       -0.013695356 -0.0010335307 0.0032807095 0.017649455
000240 a5 f8 7d bd 58 8a 26 3c d0 a9 8f 3c ca 7a bf bb
       -0.062004704 0.01016482 0.017537028 -0.005843495
000250 bc 20 38 3c ec 44 19 bd e5 31 9f 3c cb 42 1a bd
       0.011238273 -0.037419245 0.019432971 -0.037661355
000260 d8 1c 8f ba c5 cd e7 3b 1e d4 f6 3c 4e 6c b4 bc
       -0.001091863 0.00707409 0.030130442 -0.0220243
000270 13 f9 93 ba 39 5f 9a bc 1c 56 3e bd 13 b0 00 bb
       -0.001128944 -0.018844234 -0.04646884 -0.0019636198
000280 8e 5c 46 3b 44 d0 95 bc 74 69 52 3c 64 f0 c0 3c
       0.003026757 -0.018287785 0.012842525 0.023552127
000290 c2 25 e0 bc 6d 05 ad bb 0a a2 72 3c fc 7d bd bc
       -0.027361754 -0.005280188 0.014809141 -0.023131363
0002a0 7e 70 d2 3b 99 fa f2 3a 81 ea 9a 3b 77 c1 37 bc
       0.0064221015 0.0018537819 0.004727662 -0.011215559
0002b0 72 05 8f 3b d9 9d b7 bb 77 f7 49 3c 61 06 67 3c
       0.004364663 -0.0056035337 0.012327067 0.014100642
0002c0 d9 fd 47 3c 75 22 52 3c 6e b0 0b bd c9 b5 15 bd
       0.012206518 0.012825598 -0.034103803 -0.036550317
0002d0 1e 26 3e bc 72 ed bd bb 29 56 6b 3c 4f 18 08 3d
       -0.0116057675 -0.005796128 0.014363804 0.033226307
0002e0 65 a6 18 bd 8f da a8 bc fb f0 80 3a 50 0c 94 3c
       -0.03726806 -0.02061203 0.0009837443 0.018072277
0002f0 32 57 04 bb d7 08 a6 bc 6e a8 c2 bc 02 98 89 bc
       -0.0020193574 -0.020267887 -0.023761954 -0.016796116
000300 62 5b 51 3c b0 8e 30 bc a0 ea 4f 3c 07 80 d5 ba
       0.012778135 -0.010776207 0.012690216 -0.0016288765
000310 91 a5 0c 3b f0 90 2d 3d 0d e3 19 bb 30 08 e4 3c
       0.002146099 0.04237455 -0.002348128 0.027835935
000320 86 03 81 bc 19 9c 89 3c 80 7e b2 bc 24 2d 98 3b
       -0.01574875 0.016798066 -0.021788836 0.004644053
000330 34 77 df 3b 25 5b 2f 3d 78 55 bf bb f4 da db bb
       0.00681963 0.04281153 -0.005839046 -0.006709451
000340 65 09 a5 3c c0 69 ed 3c 0a d8 e5 3c c5 6c ce 3c
       0.020146081 0.02898109 0.028057117 0.02519835
000350 db 9d 28 bc 44 6a bd bb f2 48 48 3c 4d 6a 24 3c
       -0.010291542 -0.00578049 0.012224423 0.01003511
000360 78 12 75 bb cd 2a ab 3c c9 7d 1f 3c f6 0f 9b 3b
       -0.0037395041 0.020894432 0.009734579 0.0047321273
000370 27 10 2c bd 2d f1 86 3b 9e 84 ea 3b e2 f7 40 3d
       -0.04200759 0.004118106 0.0071569225 0.0471114
000380 0f 37 02 3c 62 48 3b bc 1c ca ea bc 16 70 a3 3c
       0.007947697 -0.011430832 -0.028660826 0.019950908
000390 7e 57 94 3b 14 d4 85 b9 13 55 a4 bb 16 41 13 3c
       0.0045270314 -0.00025525747 -0.0050150244 0.008987686
0003a0 c6 4e 2c 3c 61 49 15 bc 06 a0 11 bd 64 65 61 3c
       0.010516828 -0.009111733 -0.035553 0.013757084
0003b0 a3 f8 07 3c b4 1c be bb 37 75 61 3c 4e 17 7d 39
       0.008299026 -0.0058017615 0.013760856 0.00024136642
0003c0 bd a0 4b bc 5e 71 c9 ba ee 69 3a 3d 44 2a 80 3b
       -0.01242846 -0.0015368869 0.04551118 0.0039112885
0003d0 12 a9 0e 3c 25 9d a6 3a 65 ed 27 3d 8b 6d 97 3a
       0.008707302 0.0012711628 0.04099788 0.0011553032
0003e0 a2 26 89 bc 33 f9 68 bc 8f 32 15 3d 00 b7 1d bc
       -0.016742054 -0.01421957 0.03642517 -0.00962615
0003f0 ae 0c 39 3d d3 9a 18 3c 00 e8 8e 3c 70 6b df bc
       0.045178108 0.009314257 0.01744461 -0.02727291

bert.encoder.layer.0.attention.output.dense.bias f4 [16]
000000 00 00 00 00 00 00 00 00 00 00 00 00 00 00 00 00
       0.0 0.0 0.0 0.0
000010 00 00 00 00 00 00 00 00 00 00 00 00 00 00 00 00
       0.0 0.0 0.0 0.0
000020 00 00 00 00 00 00 00 00 00 00 00 00 00 00 00 00
       0.0 0.0 0.0 0.0
000030 00 00 00 00 00 00 00 00 00 00 00 00 00 00 00 00
       0.0 0.0 0.0 0.0

bert.encoder.layer.0.attention.output.LayerNorm.weight f4 [16]
000000 00 00 80 3f 00 00 80 3f 00 00 80 3f 00 00 80 3f
       1.0 1.0 1.0 1.0
000010 00 00 80 3f 00 00 80 3f 00 00 80 3f 00 00 80 3f
       1.0 1.0 1.0 1.0
000020 00 00 80 3f 00 00 80 3f 00 00 80 3f 00 00 80 3f
       1.0 1.0 1.0 1.0
000030 00 00 80 3f 00 00 80 3f 00 00 80 3f 00 00 80 3f
       1.0 1.0 1.0 1.0

bert.encoder.layer.0.attention.output.LayerNorm.bias f4 [16]
000000 00 00 00 00 00 00 00 00 00 00 00 00 00 00 00 00
       0.0 0.0 0.0 0.0
000010 00 00 00 00 00 00 00 00 00 00 00 00 00 00 00 00
       0.0 0.0 0.0 0.0
000020 00 00 00 00 00 00 00 00 00 00 00 00 00 00 00 00
       0.0 0.0 0.0 0.0
000030 00 00 00 00 00 00 00 00 00 00 00 00 00 00 00 00
       0.0 0.0 0.0 0.0
