tests/data_for_tests/embedding/small_gpt2/small_pytorch_model.bin (torch_old, 40749 bytes, 31 tensors)

transformer.wte.weight f4 [64, 16]
00000000: bd72 bdbc 3202 06bd cb43 843c fc57 94bb
00000010: 60c5 66ba d05e 03bd 4551 2ebc 951a 463d
00000020: e1cb 05bc 437d 073a 92fb 27bc 493e c5b9
00000030: 64f3 55bc 783a f43c ec5b 003d 55a0 fe3c
00000040: 1ee4 e23c 7b55 7fbc 1d9a 0f3c c1ab 6b3c
00000050: 4ab0 f43c b86e 243c ab02 1b3d 2769 4aba
00000060: d594 c339 be7c 17bc 50bd 7ebb 10ab 753b
00000070: 4c23 74bc 5d72 50bc 0447 983b 422c 113d
00000080: 14f1 8a3c d4a0 b6bc f0d9 6b3b 7b06 f4bb
00000090: 2b9e 0a3d 30b0 6d3c 5c89 03bd 6901 403c
000000a0: c0d7 903c af2e 4bbb d01a 0cbc aae2 61bc
000000b0: bdf8 913c 7754 343d 8405 a8bc 10a0 9b3c
000000c0: 8cd8 59bc 64ea 81bc 8248 e2bb f218 2ebc
000000d0: 26fb 3abd d9d6 dbbb ee37 93bc 0099 8a3c
000000e0: ea0e 46bd ecbb 88b9 2a4a 45bc 73f3 37bc
000000f0: aa09 103d e6e1 98bc 8297 4fbc 7788 bb3b
00000100: b5f1 b3bc ac76 e2bc 0f17 d43b ca7a c13b
00000110: fc80 1fbc 01a3 ff3c 9318 e7bb 0e92 b2ba
00000120: eb20 943c 693c babc 8560 6dbc f9d0 aa3c
00000130: ea56 e13c cee7 033c 522d 85bb 461e cf3b
00000140: 4709 8abc 9550 f9bb 53a8 fe3c f422 073d
00000150: afb5 433c af53 aa3b 36ed 26bb 00a5 473c
00000160: 5b4b 8c3c 8a2b 5ebb 3155 82bb 02c6 64bc
00000170: 0019 93bb 7991 90ba e5a2 27bd 7dfc 643d
00000180: 6273 17bc 2746 503c 195e 913a f8e7 d7b9
00000190: 472a c53c ae76 9fbb ef9f 2c3a 2efe af3c
000001a0: 1de8 213b 391b 113d 557e b13c 6b59 57bc
000001b0: 6499 33bc a184 33bb b29a 6bbc d9ea a0bb
000001c0: a7de a1b9 3214 3fbd 6aaf be3c 35a6 7abc
000001d0: cfc2 5a3c ecd5 d83b dead 3cbc f8a5 8b3c
000001e0: 5ba0 acbc 1dbd 283d 9ca3 1d3c 3d87 3a3c
000001f0: e256 b23c 52f0 09bc 194f 193c 1250 19bd
00000200: 3c0e bebb ec8f e6bc 4f0b a4bb bd54 a73b
00000210: 8f6d 44bc f74c 09bc 392a 093c 9c8e f2bc
00000220: a1d6 07bc eeed 42bc e015 41bc e4c1 1cbd
00000230: eb2a 28bd bc63 a6bc 2cda e33c 906b 893c
00000240: f761 983b 46df 18bc cb0f 123a 7b91 a33b
00000250: c745 343c 2b1d 903b b46a 4a3b fd99 b83c
00000260: 017c 3e3b 249d d6bc 54d1 e7bc 5764 b53b
00000270: 6b4b 8f3c b07e 1dbb 69c0 ae3c 17d3 4d3c
00000280: e43f 923c 852e 8ebc 699b f23c db98 deb9
00000290: 2b95 c23a fc70 053d 7b1e 46bc 842b bebb
000002a0: 40b0 683c 1850 c03c 1377 b83b 55ee bb3b
000002b0: e64c 1a3c 776f 133c 2eaf f03b 9bb1 16bc
000002c0: 5df4 f5bc ac8d ea39 2d7b c5bb 1003 b7bc
000002d0: 0151 2f3c 8f7d cd3c a23e 233c dac0 98bc
000002e0: 7e07 303c 9708 d0bb ece7 fa3c b416 b2bb
000002f0: 1780 fd3b 20d8 d23b 025c 223d 095e 0dbc
00000300: dda9 733b 1b5c a73c 0a21 923b 96d3 9ebb
00000310: b8f4 533d 0059 01bd 8cdb 173c e722 18bd
00000320: 20f1 72bc dca8 463c fb40 bcbc 45c6 1e3c
00000330: 8ce0 ffbc 1480 bf3c 111b 833b 33b4 d9b9
00000340: 0207 1cbc f311 4cba 4b1c a53b 905f dabc
00000350: c656 5a3b a687 233c 9f2e 8abc 6173 0ebc
00000360: 78ba 62bc 4e00 32bd f8e5 5dbd 3527 4cbc
00000370: 30bf 193b c70f aebc 2755 013d 90d5 01bc
00000380: 1a27 1d3d f509 8bbb 54f4 2d3b 6bec fbbc
00000390: 0618 a93b fd23 93bc dce8 3ebb d612 b03c
000003a0: 44a1 9aba 3b02 b0bc 5c61 aabc 2a98 71bc
000003b0: 5d71 0d3d b445 9abb 6ae9 563b b435 8e3b
000003c0: 612c 56bc 6757 023d 9705 21bc e2a5 98bc
000003d0: b424 2dbc c06a 16bd db73 ecbb 15d4 023d
000003e0: d8c9 76bc ab1b 833c 7e8a e3bc 24b4 d3bb
000003f0: 4676 bbbc aa37 b2bc 120d af3c b58d cabc
-0.023126 -0.032716937 0.016145607 -0.00452709 -0.0008803215 -0.032072842 -0.010639493 0.048365194
-0.008166284 0.0005168507 -0.01025285 -0.00037621174 -0.013058517 0.029813036 0.031337664 0.031082312
0.027696665 -0.015584345 0.008764771 0.014384211 0.029869217 0.010036163 0.03784434 -0.00077213574
0.00037304187 -0.009246049 -0.0038870163 0.0037485994 -0.014900994 -0.012722579 0.0046471376 0.0354426
0.016960658 -0.022293486 0.0035988055 -0.0074470616 0.033842247 0.014507338 -0.032113418 0.011719086
0.017681003 -0.0031003167 -0.0085513145 -0.013786951 0.017818803 0.044025864 -0.020510443 0.018997222
-0.013296258 -0.015858836 -0.0069056163 -0.010626065 -0.04564967 -0.0067089614 -0.017971005 0.01691866
-0.048354067 -0.00026079954 -0.012041608 -0.011227476 0.035165466 -0.018662404 -0.0126704 0.005723055
-0.02196584 -0.027644478 0.0064724754 0.00590453 -0.009735342 0.031205656 -0.00705249 -0.001362385
0.018082103 -0.022733884 -0.014488344 0.020851599 0.027507264 0.008050872 -0.0040642405 0.0063207475
-0.016850127 -0.007608483 0.031086123 0.03299232 0.011945172 0.005197964 -0.0025470979 0.012185335
0.017125776 -0.0033900463 -0.0039774408 -0.013963224 -0.004489064 -0.0011029682 -0.040926833 0.055904854
-0.009243818 0.012712038 0.0011090665 -0.00041180826 0.024068011 -0.0048664426 0.0006585111 0.021483507
0.0024705 0.035426352 0.021666685 -0.0131438775 -0.010961864 -0.0027392285 -0.014380144 -0.0049108085
-0.00030874202 -0.04665012 0.023277003 -0.015298416 0.01335211 0.0066172983 -0.011516063 0.017046914
-0.021072557 0.041195977 0.009621527 0.011384782 0.021769945 -0.008419113 0.009357237 -0.037429877
-0.0058000367 -0.0281448 -0.005006231 0.005106537 -0.011989011 -0.008380166 0.008371883 -0.029609017
-0.008290918 -0.011897547 -0.011785001 -0.038270846 -0.041056555 -0.020311229 0.027813993 0.016774923
0.00465035 -0.009330576 0.00055718113 0.004991708 0.011002964 0.0043980083 0.0030886354 0.022534365
0.0029065611 -0.026197977 -0.028298058 0.005535643 0.017492017 -0.002403181 0.021331983 0.012562535
0.017852731 -0.017356167 0.029615121 -0.00042457026 0.0014845481 0.032578453 -0.012092228 -0.0058035273
0.0142021775 0.023475692 0.005629429 0.0057351985 0.009417748 0.008998743 0.007345102 -0.009197618
-0.030023748 0.00044737512 -0.0060266466 -0.022340328 0.010700465 0.025084285 0.009963663 -0.018646646
0.010743974 -0.0063486802 0.030628167 -0.0054348353 0.0077362168 0.0064344555 0.039638527 -0.008628377
0.0037180104 0.020429661 0.004459505 -0.0048470004 0.051747054 -0.031579018 0.009268653 -0.03714266
-0.0148279965 0.01212522 -0.022980204 0.009690826 -0.031235002 0.023376502 0.0040010293 -0.00041523724
-0.009523155 -0.0007784657 0.005038773 -0.026656896 0.003331588 0.009981072 -0.016867934 -0.008694501
-0.013838403 -0.04345732 -0.054174393 -0.01246052 0.0023459904 -0.021247758 0.03157535 -0.007924452
0.03836737 -0.0042431303 0.0026543336 -0.030752381 0.0051603345 -0.017961496 -0.0029130494 0.021493357
-0.0011797328 -0.021485439 -0.020798378 -0.014745751 0.03453194 -0.0047080163 0.0032792934 0.004339898
-0.013072104 0.031821635 -0.009827993 -0.018633787 -0.010567833 -0.0367229 -0.0072159595 0.03194054
-0.015062772 0.016004404 -0.027776 -0.0064606834 -0.022883546 -0.021755058 0.021368537 -0.024725774

transformer.wpe.weight f4 [20, 16]
00000000: bda9 95bc aae9 f13b 1d0c 3bba 9773 c03c
00000010: dd91 8cbb 0711 35bc b468 943b 10a8 f7bc
00000020: b047 12bc acf0 e03c 192b f23b dc83 6abc
00000030: 96b1 a8bb dbb0 6bbc cbf1 293c b251 f2bc
00000040: 72c1 8ebc 3237 de3c 694c 11bc 3e95 1d3a
00000050: c14d 12bd 30b9 7e3c aa2d 09bd 58b2 0e3c
00000060: 53bb 05bd c0c9 dbbc 6094 413c 6459 aebc
00000070: b90a 1abd bd45 0e3c a051 2b3d c47a c03c
00000080: a221 86b9 bba3 e3bc 7c88 813c 8430 083b
00000090: a875 853c 2f99 42ba 155d 5a3c 0e17 6dbc
000000a0: 09bf dd3c 60ac b73b a5c9 e93b aa15 5a3c
000000b0: 899e e9bc 7c7a 473c 7e9c 6e3c ca0d b4bc
000000c0: 17b8 103d d33d 363d f4b4 c0bb 6187 49bb
000000d0: d787 eaba 886d 06bd 24a8 c9bb 928d d8bb
000000e0: af0d 143d 65fd b2bc 386f fbbc 4195 f3bc
000000f0: 55c2 91bc e1d1 69bc e603 413c 1ff5 8b3a
00000100: 2202 abbc b1a4 1cbc 4cd5 9ebc 64b7 cc3c
00000110: dcfb fd3b 5b87 273d 41a5 debc e0e0 7f3c
00000120: d726 cc3c 8ff4 753a af88 2d3c 666b 3cbc
00000130: 8df6 a83b 576f b0bb 2a47 543a dfd4 20bd
00000140: f465 5ebb b299 c8ba 4a3f 243c 1d06 84bb
00000150: 2a7a 043c f4d1 213d 1410 083d a947 d9bb
00000160: cd36 30bc eab1 88bc c6e0 24bc 9423 a73b
00000170: c07d 2cbc 95e7 4fbc cce0 5abc ad19 0abc
00000180: efa4 8b3c e5e3 bbbc 70f2 40bc 5d94 fcbc
00000190: 25a3 21bd 0c5b 62bb 58a1 abbc 9ca1 62bb
000001a0: 0941 24bd 80d7 213c 2955 d43c c977 013c
000001b0: 16af 27bc e0bf b93c a294 333d 927b 8bba
000001c0: 65b6 0cbd 963f a7bc fcbe 923b 20cd 8abc
000001d0: 5c9f 743b ca22 58bb 36d2 1dbc 8b76 83bb
000001e0: bb81 c1bc 675d d7bb 9e0c 2ebc 9e06 a4bb
000001f0: 0ab5 573c 4bb2 1abc 4050 f33b 60a0 b03c
00000200: f553 f23c 12fc 1c3b cd91 b4bc 8188 803b
00000210: c228 353c 3e82 483c 847c 0d3d e3dc 8b3c
00000220: 4f24 163c 6204 693c 6240 3bbb 821c febb
00000230: 3427 01bd ad0f 87bc c7fa 9fbc 89b3 51bc
00000240: 3d23 263b 3902 76bb e96f 8e3c 8d35 a1bc
00000250: 53bf 16bc cac2 5d3c 0246 283d affc 31ba
00000260: 2fb7 c33c d807 c0bc b8d3 113c 81aa 35bb
00000270: 7990 5bbc 7114 943b 9b0e febb b084 a7bc
00000280: 451c 0e3c a9e2 0abb 828a ccbc 3d0c 86b8
00000290: d595 d63b 1cea dcba d5f6 21bb 55af e0bc
000002a0: 4fba 6ebc 4616 cfbb f8cc 5e3c cb6d 1bbc
000002b0: 5427 93bc e71d 91bb 758e 413b 5319 453d
000002c0: 808d 4c3c 9617 2ebb 045c 2cbd 0422 52bc
000002d0: a2a9 9abb 9d2c d0ba 3358 13bc 4e37 c23c
000002e0: 8ef3 4a3c af0f fe3c 9d4a aa3c 7f9d 9cbc
000002f0: c9f5 97bc 59da e5bb 563f a9bc 14ad 8dbb
00000300: fce5 a7bb 54aa 05bd 0145 aabc 80e6 833b
00000310: bca9 10bd 34d3 533c 743a f9bb 7563 4d3c
00000320: a79d 0139 8ecb 1dbc f2c6 c2bc 3b60 9ebc
00000330: 29db 81bb f89c 58bc 6708 4ebc d2fd 17bc
00000340: 41e6 6bbc c4d5 38bc a985 f93c 94d5 163b
00000350: 5047 ef3b 5710 8fbc cf04 e2bc 4978 2bbd
00000360: b2ef 383c 2a08 c83a 3b47 fe3c 3894 a63b
00000370: 5378 33bc d725 63bb 8cbc eb3c 52eb 913b
00000380: 52d4 c23b 32dd 333d d85f 253c 1dc0 a7bb
00000390: 89fb 00bd 1e8c 493c ef2c 7639 e14d ccbc
000003a0: de02 fabc 5222 80bc 2ff2 f3bc bde5 6d3c
000003b0: 8721 883c 44dc e5bc ca3e 27bd eec1 b33c
000003c0: 697f a7bc 3ddd f43c 501e 57bd 5cdb de3c
000003d0: 6253 60bc bccf 72bc f8f5 5cbc 56c2 a73c
000003e0: 9871 b1ba 30cd e6bc fb64 3039 2ee7 f93c
000003f0: 79d7 adbc f7f6 ffbb bbb9 6b3c 3ed3 4bbd
-0.018269414 0.0073825913 -0.0007135289 0.023492618 -0.004289849 -0.011051423 0.004529083 -0.030231506
-0.008928224 0.027458511 0.0073903915 -0.014313664 -0.005148123 -0.014385427 0.010372589 -0.029579971
-0.017426226 0.027125929 -0.008868315 0.00060113135 -0.035718683 0.015547082 -0.033490814 0.008709513
-0.03264935 -0.0268296 0.0118151605 -0.02128286 -0.037607882 0.008683619 0.04182589 0.02349604
-0.0002558353 -0.027788034 0.015812151 0.002078087 0.016291454 -0.0007423339 0.013327857 -0.014470829
0.027068632 0.0056052655 0.0071346336 0.013310829 -0.028517978 0.012175199 0.014563678 -0.021979231
0.03533181 0.044492554 -0.0058809463 -0.0030750858 -0.0017893267 -0.0328193 -0.006154077 -0.0066086734
0.036145862 -0.021849344 -0.030692682 -0.029734256 -0.01779286 -0.01427123 0.011780715 0.001067791
-0.02087504 -0.00956075 -0.019388817 0.024989791 0.0077509712 0.04090057 -0.027178409 0.015617579
0.024920864 0.00093824504 0.01059167 -0.011500215 0.0051563443 -0.0053843665 0.00080977625 -0.03926551
-0.003393528 -0.0015304594 0.010024855 -0.004029049 0.008085767 0.039506868 0.03321846 -0.006630857
-0.010755253 -0.016686399 -0.010063356 0.005100677 -0.010528028 -0.012689491 -0.01335926 -0.008428973
0.01704642 -0.022935817 -0.011776552 -0.030832464 -0.039462227 -0.0034539131 -0.020950958 -0.003458119
-0.040101085 0.009878039 0.025919514 0.007902094 -0.010234615 0.022674501 0.04384292 -0.0010641685
-0.034353632 -0.020416062 0.0044783335 -0.016943514 0.003732643 -0.003297972 -0.009632638 -0.004011934
-0.02362143 -0.0065724137 -0.010623125 -0.0050056716 0.013165722 -0.009441922 0.007425338 0.021560848
0.02958105 0.0023953957 -0.02204218 0.0039225225 0.011057081 0.012238083 0.034542575 0.0170731
0.00916393 0.014222236 -0.002857231 -0.0077548632 -0.031531528 -0.016486967 -0.01952876 -0.012799152
0.0025350593 -0.0037537946 0.017387347 -0.019678855 -0.009200889 0.013535211 0.04108239 -0.0006789667
0.02389106 -0.02344124 0.008900575 -0.0027720036 -0.013401144 0.0045190384 -0.007753206 -0.020449013
0.008673732 -0.002119223 -0.02496839 -6.3918975e-05 0.006548623 -0.0016854438 -0.0024713774 -0.027427355
-0.014570787 -0.006319794 0.013598673 -0.009486626 -0.017963089 -0.0044286135 0.0029534374 0.048119854
0.012484908 -0.0026564351 -0.04207994 -0.012825493 -0.004719929 -0.0015882436 -0.008993196 0.023708012
0.0123871695 0.031013338 0.020787532 -0.019118069 -0.018549817 -0.0070145545 -0.020660084 -0.004323611
-0.005123852 -0.03263314 -0.020784857 0.0040252805 -0.03531812 0.012928773 -0.007605845 0.012535919
0.00012361129 -0.009631051 -0.023776505 -0.019332996 -0.0039628935 -0.013221018 -0.012575245 -0.009276824
-0.0143981585 -0.011281434 0.030459242 0.0023015486 0.0073022023 -0.017463846 -0.027590184 -0.04186276
0.011287617 0.0015261222 0.031039825 0.005083587 -0.0109539805 -0.0034660005 0.02877643 0.004453101
0.0059457207 0.04391212 0.010093652 -0.0051193372 -0.031489883 0.012301473 0.00023477127 -0.02493948
-0.030518945 -0.015641365 -0.029778568 0.014520106 0.01661755 -0.028059132 -0.040831365 0.021943059
-0.020446496 0.02989065 -0.052519143 0.027204208 -0.013691755 -0.014820036 -0.013486378 0.020478409
-0.0013537882 -0.028174013 0.00016822286 0.030505743 -0.02122091 -0.007811423 0.014387543 -0.049762003

transformer.h.0.ln_1.weight f4 [16]
00000000: 0000 803f 0000 803f 0000 803f 0000 803f
00000010: 0000 803f 0000 803f 0000 803f 0000 803f
00000020: 0000 803f 0000 803f 0000 803f 0000 803f
00000030: 0000 803f 0000 803f 0000 803f 0000 803f
1.0 1.0 1.0 1.0 1.0 1.0 1.0 1.0
1.0 1.0 1.0 1.0 1.0 1.0 1.0 1.0

transformer.h.0.ln_1.bias f4 [16]
00000000: 0000 0000 0000 0000 0000 0000 0000 0000
00000010: 0000 0000 0000 0000 0000 0000 0000 0000
00000020: 0000 0000 0000 0000 0000 0000 0000 0000
00000030: 0000 0000 0000 0000 0000 0000 0000 0000
0.0 0.0 0.0 0.0 0.0 0.0 0.0 0.0
0.0 0.0 0.0 0.0 0.0 0.0 0.0 0.0

transformer.h.0.attn.bias f4 [1, 1, 20, 20]
00000000: 0000 803f 0000 0000 0000 0000 0000 0000
00000010: 0000 0000 0000 0000 0000 0000 0000 0000
00000020: 0000 0000 0000 0000 0000 0000 0000 0000
00000030: 0000 0000 0000 0000 0000 0000 0000 0000
00000040: 0000 0000 0000 0000 0000 0000 0000 0000
00000050: 0000 803f 0000 803f 0000 0000 0000 0000
00000060: 0000 0000 0000 0000 0000 0000 0000 0000
00000070: 0000 0000 0000 0000 0000 0000 0000 0000
00000080: 0000 0000 0000 0000 0000 0000 0000 0000
00000090: 0000 0000 0000 0000 0000 0000 0000 0000
000000a0: 0000 803f 0000 803f 0000 803f 0000 0000
000000b0: 0000 0000 0000 0000 0000 0000 0000 0000
000000c0: 0000 0000 0000 0000 0000 0000 0000 0000
000000d0: 0000 0000 0000 0000 0000 0000 0000 0000
000000e0: 0000 0000 0000 0000 0000 0000 0000 0000
000000f0: 0000 803f 0000 803f 0000 803f 0000 803f
00000100: 0000 0000 0000 0000 0000 0000 0000 0000
00000110: 0000 0000 0000 0000 0000 0000 0000 0000
00000120: 0000 0000 0000 0000 0000 0000 0000 0000
00000130: 0000 0000 0000 0000 0000 0000 0000 0000
00000140: 0000 803f 0000 803f 0000 803f 0000 803f
00000150: 0000 803f 0000 0000 0000 0000 0000 0000
00000160: 0000 0000 0000 0000 0000 0000 0000 0000
00000170: 0000 0000 0000 0000 0000 0000 0000 0000
00000180: 0000 0000 0000 0000 0000 0000 0000 0000
00000190: 0000 803f 0000 803f 0000 803f 0000 803f
000001a0: 0000 803f 0000 803f 0000 0000 0000 0000
000001b0: 0000 0000 0000 0000 0000 0000 0000 0000
000001c0: 0000 0000 0000 0000 0000 0000 0000 0000
000001d0: 0000 0000 0000 0000 0000 0000 0000 0000
000001e0: 0000 803f 0000 803f 0000 803f 0000 803f
000001f0: 0000 803f 0000 803f 0000 803f 0000 0000
00000200: 0000 0000 0000 0000 0000 0000 0000 0000
00000210: 0000 0000 0000 0000 0000 0000 0000 0000
00000220: 0000 0000 0000 0000 0000 0000 0000 0000
00000230: 0000 803f 0000 803f 0000 803f 0000 803f
00000240: 0000 803f 0000 803f 0000 803f 0000 803f
00000250: 0000 0000 0000 0000 0000 0000 0000 0000
00000260: 0000 0000 0000 0000 0000 0000 0000 0000
00000270: 0000 0000 0000 0000 0000 0000 0000 0000
00000280: 0000 803f 0000 803f 0000 803f 0000 803f
00000290: 0000 803f 0000 803f 0000 803f 0000 803f
000002a0: 0000 803f 0000 0000 0000 0000 0000 0000
000002b0: 0000 0000 0000 0000 0000 0000 0000 0000
000002c0: 0000 0000 0000 0000 0000 0000 0000 0000
000002d0: 0000 803f 0000 803f 0000 803f 0000 803f
000002e0: 0000 803f 0000 803f 0000 803f 0000 803f
000002f0: 0000 803f 0000 803f 0000 0000 0000 0000
00000300: 0000 0000 0000 0000 0000 0000 0000 0000
00000310: 0000 0000 0000 0000 0000 0000 0000 0000
00000320: 0000 803f 0000 803f 0000 803f 0000 803f
00000330: 0000 803f 0000 803f 0000 803f 0000 803f
00000340: 0000 803f 0000 803f 0000 803f 0000 0000
00000350: 0000 0000 0000 0000 0000 0000 0000 0000
00000360: 0000 0000 0000 0000 0000 0000 0000 0000
00000370: 0000 803f 0000 803f 0000 803f 0000 803f
00000380: 0000 803f 0000 803f 0000 803f 0000 803f
00000390: 0000 803f 0000 803f 0000 803f 0000 803f
000003a0: 0000 0000 0000 0000 0000 0000 0000 0000
000003b0: 0000 0000 0000 0000 0000 0000 0000 0000
000003c0: 0000 803f 0000 803f 0000 803f 0000 803f
000003d0: 0000 803f 0000 803f 0000 803f 0000 803f
000003e0: 0000 803f 0000 803f 0000 803f 0000 803f
000003f0: 0000 803f 0000 0000 0000 0000 0000 0000
1.0 0.0 0.0 0.0 0.0 0.0 0.0 0.0
0.0 0.0 0.0 0.0 0.0 0.0 0.0 0.0
0.0 0.0 0.0 0.0 1.0 1.0 0.0 0.0
0.0 0.0 0.0 0.0 0.0 0.0 0.0 0.0
0.0 0.0 0.0 0.0 0.0 0.0 0.0 0.0
1.0 1.0 1.0 0.0 0.0 0.0 0.0 0.0
0.0 0.0 0.0 0.0 0.0 0.0 0.0 0.0
0.0 0.0 0.0 0.0 1.0 1.0 1.0 1.0
0.0 0.0 0.0 0.0 0.0 0.0 0.0 0.0
0.0 0.0 0.0 0.0 0.0 0.0 0.0 0.0
1.0 1.0 1.0 1.0 1.0 0.0 0.0 0.0
0.0 0.0 0.0 0.0 0.0 0.0 0.0 0.0
0.0 0.0 0.0 0.0 1.0 1.0 1.0 1.0
1.0 1.0 0.0 0.0 0.0 0.0 0.0 0.0
0.0 0.0 0.0 0.0 0.0 0.0 0.0 0.0
1.0 1.0 1.0 1.0 1.0 1.0 1.0 0.0
0.0 0.0 0.0 0.0 0.0 0.0 0.0 0.0
0.0 0.0 0.0 0.0 1.0 1.0 1.0 1.0
1.0 1.0 1.0 1.0 0.0 0.0 0.0 0.0
0.0 0.0 0.0 0.0 0.0 0.0 0.0 0.0
1.0 1.0 1.0 1.0 1.0 1.0 1.0 1.0
1.0 0.0 0.0 0.0 0.0 0.0 0.0 0.0
0.0 0.0 0.0 0.0 1.0 1.0 1.0 1.0
1.0 1.0 1.0 1.0 1.0 1.0 0.0 0.0
0.0 0.0 0.0 0.0 0.0 0.0 0.0 0.0
1.0 1.0 1.0 1.0 1.0 1.0 1.0 1.0
1.0 1.0 1.0 0.0 0.0 0.0 0.0 0.0
0.0 0.0 0.0 0.0 1.0 1.0 1.0 1.0
1.0 1.0 1.0 1.0 1.0 1.0 1.0 1.0
0.0 0.0 0.0 0.0 0.0 0.0 0.0 0.0
1.0 1.0 1.0 1.0 1.0 1.0 1.0 1.0
1.0 1.0 1.0 1.0 1.0 0.0 0.0 0.0

transformer.h.0.attn.c_attn.weight f4 [16, 48]
00000000: e00d e63c 40f1 ea3b 8cb6 703b c77b edbc
00000010: b994 b93c bb51 85bb e5ed 50bc 89ee 8a3c
00000020: f90e f63b 049a e1bb abc2 cc3b a4ae 02bd
00000030: cf49 2ab9 d809 943c 21db b43c 2b46 efbc
00000040: 642d 463c 7b0c 2a3c 79f1 5ebd 5802 d6bc
00000050: 1088 a13c 27c8 2ebc d2eb b5bc d3dc 65bc
00000060: b113 0fbc ea55 ffbc fc44 b03a e197 49bc
00000070: 62b1 4a3c aafd 533d c3bd edbc d705 69bc
00000080: 2022 38bb 3cf3 3fbc 6a49 0e3c cb43 9dbc
00000090: 1642 0b3c 0a91 a2bb 3b10 d7bb 57d0 42bc
000000a0: 8d78 42bd 55fa 6f3c 77bd ed3c 1718 0f3c
000000b0: d21c 953c 2bd7 b23c c45f 343c cbd7 a03c
000000c0: cfac e33c 4b63 c13c 968c 133d 92ed 853b
000000d0: cd0c bebb 6f9e 8f3c 77bd d03b a113 2c3b
000000e0: 7c20 1a3c 8ac0 dbbb 6ae8 e7bb 37c0 a23c
000000f0: 4ff6 893c 3c13 e9bc 92e3 813b 7f2b 9dbc
00000100: 1bd8 c3ba b74d 88bb 42ab cfbc 2afe 8cbb
00000110: c972 33bc 10d7 9abc 273e efbc c4c4 b73c
00000120: 2a9a 383c 90a8 99bc b0b1 1a3c 9472 ca3c
00000130: c03c 9dbc 0b93 36bc 70fe 94bc 6e40 813a
00000140: 12d2 1a3a 4272 073b 7e28 1e3d 5d4f 03bc
00000150: 9448 293a 4af8 ba3c 204a 56bc d8e4 2dbd
00000160: c9f4 1539 09d0 f0bc 327a 04bc 3b7a 883c
00000170: d9b2 68bd 4297 efbc fbde fbbb 6211 293c
00000180: c556 dd3b 3541 dfbc 17db eabc a055 1d3c
00000190: 4096 c83b 702d a13b ca1b 003c 0f37 e1bb
000001a0: 980b d0bb b460 903c 665a 66bc f0f3 1dbc
000001b0: c78f 20bc 981d f83c a77d e8bc e507 7b3c
000001c0: 2295 ac3c 33ae 5eba d61b 263d ce6b 31ba
000001d0: cb53 fcbb 50d5 b0bc 59c0 9dbb 2236 243c
000001e0: 6e81 f8bc 77da c7bc bbc2 843c 1cde 873b
000001f0: 81c4 063c 0466 90bc 732a afbc b906 98bc
00000200: babc 81bc c7ab fc3c 7c79 fbbb 6cbe f1bb
00000210: 27da 7bbd bde0 453a 0be1 253a 6175 c0bb
00000220: 54e9 093c 723e ac3c 6237 de3c 06cf 20bc
00000230: 6549 3eba 47c2 223d e005 58bc 849f 00ba
00000240: 2b95 34bc ee24 d13c 82bd d2bc c453 2a3d
00000250: b915 8a3c f090 2d3d e28c 9a3b d0a6 0d3c
00000260: d95a bdbc 24b4 24bb f329 0fbc ebd6 69bc
00000270: 80eb 6bb9 5599 ba3c a1dc 263b c6e4 0fbd
00000280: 34ae d53c 8fa5 2cbc 35db 743b b83a b93c
00000290: 3606 12bc 9f2f 82bc 9cc9 a0bc 0e17 773c
000002a0: dc96 d1bc 000a 863c 1e48 cdbc f3e6 e8bc
000002b0: 1fec 8f3c 7f00 973b af53 37bc bcdc 2bbc
000002c0: 733d 04bb 72dc b93a f8d4 b03b 1ac5 0c3b
000002d0: 1ac2 97bc f435 a53b b89e b73c 992d 583d
000002e0: 21cc d23b 7815 abbc 4258 11bd b5c3 76bd
000002f0: 3033 d13c a579 fa3a f4bc e0bb 36a8 8bbc
00000300: b8ca 043d 129d 533d 552c 9c3c a4c5 8d39
00000310: dd1e 243c f581 7cbc b131 8dbc db72 c039
00000320: 3016 bf3c 0bf1 513c a6ad b9bc a612 1cbc
00000330: 2acd c0ba ced9 7a3c 8614 b53c 6775 fc3b
00000340: 19ec 44bb ecab 85bc 62ae 4c3c 9740 0ebc
00000350: 346a 563c 46c9 0bbd 763c 243c bc95 053b
00000360: efe3 49bb ed70 9b3b 74c9 46bb 63e9 933c
00000370: 0fa6 003d 2111 8f3b 7713 053c 0250 fc3b
00000380: 866d 443c 1bea 433c bdaa 9c3c 989c 0f3d
00000390: ef4a 8bbc e4e9 1a3c a96c fbb9 f26d 2cbc
000003a0: f097 233d d45f f93a 438c 903b 1c45 47bc
000003b0: a4d9 25bc 6348 ed3c 61be a63c 574f 923b
000003c0: 2fc2 e93c fcd3 53bb 050d f1bc db1c dabc
000003d0: debd 46bc e66e 3b3d ed44 9a3c d269 b4bb
000003e0: c665 c2bc b812 313c 5d43 e5bb 2664 ce3a
000003f0: 445b 623c 168d 293d 553c 063d f226 793c
0.028082788 0.0071698725 0.00367299 -0.028989686 0.022653924 -0.004068581 -0.012752031 0.016959446
0.007509109 -0.006884815 0.006248792 -0.03190483 -0.00016239959 0.0180711 0.022077145 -0.029208263
0.012095783 0.010378952 -0.054429505 -0.026124164 0.0197182 -0.010667837 -0.022207174 -0.014029699
-0.008732722 -0.031168897 0.0013448293 -0.012304277 0.012371393 0.051755585 -0.02902115 -0.014222584
-0.0028096512 -0.011715706 0.008684495 -0.019197365 0.008499643 -0.0049611377 -0.006563214 -0.011890492
-0.047478247 0.014647086 0.029021008 0.008733771 0.01820222 0.021831116 0.01100916 0.019634148
0.027792362 0.023606917 0.036022745 0.0040871585 -0.005799866 0.017531602 0.006370242 0.0026256817
0.009407159 -0.006706302 -0.0070772665 0.019867046 0.016841082 -0.028451554 0.003963896 -0.01918578
-0.0014941724 -0.004159655 -0.025350217 -0.0043027597 -0.01095266 -0.018901378 -0.029204441 0.022432692
0.011267224 -0.018757135 0.009441778 0.024712838 -0.019194007 -0.011143456 -0.018187732 0.000986112
0.00059059367 0.0020667468 0.038612835 -0.008014527 0.00064576534 0.022823472 -0.013079196 -0.04245457
0.00014300937 -0.029396074 -0.008085774 0.016659847 -0.056811187 -0.02924693 -0.0076864935 0.010319086
0.0067547285 -0.027252773 -0.028668923 0.009602934 0.006121427 0.0049187467 0.007819125 -0.0068730186
-0.0063490383 0.017624237 -0.014059639 -0.009640679 -0.009799904 0.030287549 -0.028380228 0.015321706
0.021067206 -0.00084945856 0.04055389 -0.00067680783 -0.0077004186 -0.02158609 -0.0048141894 0.010022672
-0.030335154 -0.024396164 0.016206136 0.0041463505 0.008225561 -0.01762677 -0.021382546 -0.018557893
-0.015837062 0.030843629 -0.007674394 -0.0073774364 -0.061487343 0.0007548442 0.00063277845 -0.0058733677
0.008417446 0.02102587 0.027126018 -0.009814983 -0.00072588614 0.03973606 -0.013184994 -0.0004906582
-0.011021893 0.025530305 -0.02572513 0.04158379 0.016856061 0.04237455 0.0047165016 0.008645728
-0.023114609 -0.0025131786 -0.008738029 -0.014272432 -0.00022499077 0.022778193 0.0025461095 -0.035130285
0.026084043 -0.010537519 0.0037362103 0.022611007 -0.008912614 -0.015891848 -0.019627385 0.01508118
-0.02558463 0.01636219 -0.025058802 -0.028430438 0.017568646 0.0046082134 -0.011189385 -0.010489639
-0.0020178228 0.0014180078 0.0053964816 0.0021479786 -0.018525172 0.005041832 0.02241455 0.05277786
0.0064330255 -0.02088426 -0.03548456 -0.060245235 0.025537103 0.0019109739 -0.0068584625 -0.017047983
0.03241989 0.051663466 0.019064108 0.0002704087 0.010017124 -0.015411844 -0.017235609 0.00036706668
0.02332601 0.012813817 -0.02266581 -0.0095259305 -0.0014709581 0.015310718 0.022104513 0.007704425
-0.0030047952 -0.01631733 0.012492748 -0.008682392 0.013086844 -0.034127496 0.010024181 0.0020383438
-0.0030806025 0.0047436864 -0.0030332478 0.018055623 0.031408366 0.0043660556 0.008122317 0.0076999674
0.011989003 0.011957671 0.019124383 0.03506145 -0.017003505 0.009455178 -0.0004795541 -0.01052426
0.03993982 0.0019025751 0.0044112517 -0.012162473 -0.01012269 0.02896518 0.020354452 0.0044650245
0.028534977 -0.0032322397 -0.029425154 -0.026625087 -0.012130229 0.045760058 0.018831694 -0.005505779
-0.02373017 0.010807686 -0.0069965557 0.0015746399 0.013815705 0.041394316 0.03277238 0.015207039

transformer.h.0.attn.c_attn.bias f4 [48]
00000000: 0000 0000 0000 0000 0000 0000 0000 0000
00000010: 0000 0000 0000 0000 0000 0000 0000 0000
00000020: 0000 0000 0000 0000 0000 0000 0000 0000
00000030: 0000 0000 0000 0000 0000 0000 0000 0000
00000040: 0000 0000 0000 0000 0000 0000 0000 0000
00000050: 0000 0000 0000 0000 0000 0000 0000 0000
00000060: 0000 0000 0000 0000 0000 0000 0000 0000
00000070: 0000 0000 0000 0000 0000 0000 0000 0000
00000080: 0000 0000 0000 0000 0000 0000 0000 0000
00000090: 0000 0000 0000 0000 0000 0000 0000 0000
000000a0: 0000 0000 0000 0000 0000 0000 0000 0000
000000b0: 0000 0000 0000 0000 0000 0000 0000 0000
0.0 0.0 0.0 0.0 0.0 0.0 0.0 0.0
0.0 0.0 0.0 0.0 0.0 0.0 0.0 0.0
0.0 0.0 0.0 0.0 0.0 0.0 0.0 0.0
0.0 0.0 0.0 0.0 0.0 0.0 0.0 0.0
0.0 0.0 0.0 0.0 0.0 0.0 0.0 0.0
0.0 0.0 0.0 0.0 0.0 0.0 0.0 0.0

transformer.h.0.attn.c_proj.weight f4 [16, 16]
00000000: 9232 35bc 497c 85bb 3fa9 09bb 2c00 6fbc
00000010: 2e08 0d3c adb1 9dbc 3042 e63b 4f86 edbc
00000020: e00f 05bd 7bc1 0abc eefd 843b 4689 713c
00000030: eb58 a4bc 07b1 f1bc 596d 98bc ca34 143c
00000040: 07ee 76bc 44a4 e7bc 66f1 69bc 6ff5 003d
00000050: 3f76 93bb f0c7 08bc 6fa1 233c 30bd a0bc
00000060: 3d82 6f3c 20cd 2cbb 27b5 cb3c f790 0bbb
00000070: 6119 16bc 4233 a3bc d9a8 363c 6bb1 323c
00000080: 2920 b73b ff09 863c 2908 36bd 3e51 273b
00000090: 88e3 87bc c7c3 21bc 3908 8abc 664e 3a3c
000000a0: 1064 623c 89fe 3e3d db45 df3c 552e 453b
000000b0: 43bd 71bc a53d da3c d40e 6c3b d395 913b
000000c0: f5af f8bc 0b9b e9ba 6192 583c 9d46 d3bb
000000d0: 28f7 9a3b 66be a93b a943 113d 1232 2f3c
000000e0: a68f 3bbc bc48 e33b e064 143c 7920 74bc
000000f0: b4b8 f0bc d3c1 aabc 6db9 a6bb 46f6 b3ba
00000100: aa3f 083d c238 21bc 5341 7e3c 2136 f03b
00000110: 7a4b 203c a74d 21bd c778 c93b 25a8 69bd
00000120: f049 91bc bb51 0d3d 6e0c ecbc 3cd2 84b7
00000130: 1048 a83c 35d8 9b3c 2fe8 d1bb 4c71 223d
00000140: cf8a b73a 4b1b 663b 477f 3c3b cc0c 75bb
00000150: 49c9 ca3b 6f65 f93c 9213 463c d3ea 32bc
00000160: 1de0 19bc fd67 1a3c 192b 43bc b6aa 07bc
00000170: 755c 48bb f4eb 9ebc 02e0 4ebb 4b0f ba3c
00000180: a931 e9bb 0b10 58bc f8ba b4b9 fdd6 fabc
00000190: 5d0b 9eba 5ebe 2abb 5605 263d 4150 3fbb
000001a0: 270b e9bc 018a 2a3a bd75 663c 26a3 5fbb
000001b0: 78ce 51bc d328 023c 329e a43d 260a 1db9
000001c0: 0a8a 743c e752 7abc 7225 b4bc 2a2b fabc
000001d0: 3ce6 95bc 0290 ee3c 9b38 073d abe8 783c
000001e0: 1295 04bd 4fa6 8c3b 14c9 f83b 179d cdbb
000001f0: 9e85 b23c 8053 06bc e0e2 b2bc bc0c c03c
00000200: 13cc 03bb 7c7b c63c b93a c13c 960a 133c
00000210: cb33 a93b be10 273d 74b8 56bb ce46 5e3b
00000220: c6c2 263d c076 00bd 2ea5 eeb9 9304 09bc
00000230: ee35 f33b cf48 543c 2f49 01bb 09ed 6dbc
00000240: f8c2 f43b 29db c0bb 5401 94bb 932d b13b
00000250: 921f 073d 0272 17bc 74d8 3abc 42d5 54bc
00000260: 4bbe 65bc 50e7 75bc 6ee2 4e3d f5bb c73c
00000270: bb34 3d3c 5051 783d e4b2 0abd 5b47 2fbd
00000280: a410 a2bc 0b23 593c aa17 78bc ef21 e4bb
00000290: 7f82 833b 9ce4 e13c a98b 1b3d 2529 433d
000002a0: f848 d5bc 5643 033d c905 8abc 81c8 a43c
000002b0: f26f bebc 1cc8 3fbb d37c 80bc daa7 1a3c
000002c0: b825 b8bc 8429 953b f7e4 4f3c 6a48 523c
000002d0: 50a9 97bc df35 1dbd 39f6 d5bc e707 33bb
000002e0: ddb6 91bb 1b65 7aba 06bf 923c ceb3 993b
000002f0: b958 0cbb acdb 96b9 e519 d0bc 002d acba
00000300: 0714 55bc d087 913c d436 05bd b4ac 1fbc
00000310: 1d24 933b c2f4 6739 28c3 1cbd 8035 cf3c
00000320: d5d3 613c 268a b53b 37b9 3e3c 2754 cd3b
00000330: 0247 b83c 6688 263d 4b47 22bd cdd1 0d3a
00000340: c7fe 3d3d adf6 38bc a29c 653b 7fc0 05bc
00000350: 80db aa3c 46ec 4e3d 591b 193c eb37 26bc
00000360: e46c d23c af50 d53b e32c 7b3a c778 8838
00000370: 1ba2 84bc e209 0e3d 660b 3abc 72d6 d03c
00000380: e983 963b 3dbe c83a eb7c 27bc 70c3 71bc
00000390: b0ab 933c 1b57 123d 7008 98bc e1eb 17bd
000003a0: 209f 84bb b2d0 6539 f551 9a3a 6651 34bd
000003b0: 5b53 323c b919 f539 2d41 993c eb50 483c
000003c0: 4527 e23b ad99 c7bb b76f a7bc b898 b3bc
000003d0: 1cdd 35bc 0420 e2ba b61b 99bc 8752 56bb
000003e0: d61b acbc 7122 91bc 790f 363c 540d 7aba
000003f0: 4ad7 e23c 662a 2abc 503b 043d 2201 313c
-0.01105942 -0.004073654 -0.002100542 -0.014587443 0.008607907 -0.019249761 0.007026933 -0.028994707
-0.032485843 -0.008468981 0.004058591 0.014742201 -0.02006193 -0.029503359 -0.018606829 0.009045789
-0.015071399 -0.02827657 -0.014278745 0.031484064 -0.00450018 -0.00834845 0.009987219 -0.019621462
0.014618454 -0.0026367381 0.024866654 -0.0021296123 -0.009161324 -0.019921903 0.011148655 0.010906558
0.0055885506 0.016362188 -0.044441376 0.0025530602 -0.016587988 -0.009873337 -0.016849624 0.011371231
0.013817802 0.046629462 0.02725499 0.003008743 -0.014754596 0.026640723 0.003601958 0.0044429093
-0.03035734 -0.0017822696 0.013218493 -0.0064476267 0.0047291704 0.005180168 0.035464916 0.01069309
-0.011447823 0.006936161 0.009057254 -0.01490032 -0.029384948 -0.020844376 -0.0050880224 -0.0013730011
0.03326384 -0.009840192 0.015518504 0.0073306714 0.00978362 -0.039380696 0.006148431 -0.05704512
-0.017735451 0.034501772 -0.02881452 -1.5833524e-05 0.020542175 0.019023994 -0.0064058523 0.03965883
0.001400316 0.0035111483 0.0028762387 -0.003739166 0.006188546 0.030443875 0.012089627 -0.010920244
-0.009391812 0.009424207 -0.011912131 -0.008280447 -0.0030572687 -0.01939962 -0.0031566625 0.02271237
-0.0071165157 -0.013187419 -0.00034471578 -0.030620093 -0.001205783 -0.002605341 0.040532432 -0.0029192122
-0.0284477 0.00065055495 0.014066157 -0.0034124344 -0.012805574 0.007944304 0.08037986 -0.00014976467
0.014925489 -0.0152785545 -0.021990512 -0.03053816 -0.01829826 0.029121403 0.033012968 0.015192191
-0.032368727 0.0042922865 0.0075923298 -0.00627483 0.02179223 -0.008198619 -0.021836698 0.023443572
-0.0020110651 0.024228804 0.023587571 0.008974692 0.005163645 0.04078745 -0.0032763751 0.0033916715
0.040713094 -0.03136325 -0.00045517966 -0.008362907 0.0074222004 0.012956812 -0.0019727459 -0.014521846
0.007469531 -0.005885501 -0.00451676 0.005407044 0.032989092 -0.00924349 -0.0114041455 -0.012990298
-0.01402242 -0.0150087625 0.05050891 0.024381617 0.011548216 0.06062442 -0.03386201 -0.04279266
-0.019783325 0.013252984 -0.015142361 -0.006962053 0.004013359 0.02757483 0.037974987 0.04764666
-0.02603577 0.03204664 -0.016848462 0.020115139 -0.023246739 -0.0029263562 -0.01568452 0.009439433
-0.022478923 0.004552068 0.012688867 0.012834648 -0.018513352 -0.038381454 -0.026118385 -0.0027317943
-0.004446848 -0.0009551809 0.017913353 0.004690624 -0.0021415188 -0.00028773898 -0.025402972 -0.001313597
-0.013005263 0.017764956 -0.03252299 -0.0097457655 0.004490389 0.00022121056 -0.038272053 0.025294065
0.013783415 0.00554015 0.011640838 0.0062661353 0.022494797 0.040657423 -0.03961877 0.0005409986
0.046385553 -0.011289281 0.0035035987 -0.00816357 0.020856619 0.050518297 0.009344899 -0.010145168
0.025686689 0.0065098624 0.0009581579 6.507482e-05 -0.01619058 0.034677394 -0.011355257 0.02549288
0.0045933616 0.0015315484 -0.010222654 -0.014756069 0.018026203 0.0357276 -0.01855871 -0.037090186
-0.0040472895 0.00021916887 0.0011773693 -0.04402294 0.010884131 0.00046749206 0.018707836 0.012226324
0.006901654 -0.0060913176 -0.020439012 -0.021923408 -0.01110008 -0.0017251973 -0.018689971 -0.0032702999
-0.021009367 -0.017716618 0.011112087 -0.0009538729 0.027690548 -0.010386085 0.032283127 0.010803493

transformer.h.0.attn.c_proj.bias f4 [16]
00000000: 0000 0000 0000 0000 0000 0000 0000 0000
00000010: 0000 0000 0000 0000 0000 0000 0000 0000
00000020: 0000 0000 0000 0000 0000 0000 0000 0000
00000030: 0000 0000 0000 0000 0000 0000 0000 0000
0.0 0.0 0.0 0.0 0.0 0.0 0.0 0.0
0.0 0.0 0.0 0.0 0.0 0.0 0.0 0.0

transformer.h.0.ln_2.weight f4 [16]
00000000: 0000 803f 0000 803f 0000 803f 0000 803f
00000010: 0000 803f 0000 803f 0000 803f 0000 803f
00000020: 0000 803f 0000 803f 0000 803f 0000 803f
00000030: 0000 803f 0000 803f 0000 803f 0000 803f
1.0 1.0 1.0 1.0 1.0 1.0 1.0 1.0
1.0 1.0 1.0 1.0 1.0 1.0 1.0 1.0

transformer.h.0.ln_2.bias f4 [16]
00000000: 0000 0000 0000 0000 0000 0000 0000 0000
00000010: 0000 0000 0000 0000 0000 0000 0000 0000
00000020: 0000 0000 0000 0000 0000 0000 0000 0000
00000030: 0000 0000 0000 0000 0000 0000 0000 0000
0.0 0.0 0.0 0.0 0.0 0.0 0.0 0.0
0.0 0.0 0.0 0.0 0.0 0.0 0.0 0.0

transformer.h.0.mlp.c_fc.weight f4 [16, 64]
00000000: 9586 823d dd22 213c 72da adbc 0ea1 903b
00000010: bdb8 eebc 2e4d a2bc d471 09bc 1e93 a2bc
00000020: 67dd e0bc fcd9 e3bb fab5 9d3c 4eee 3e3d
00000030: cb72 b53c 67a5 c1bc b8d9 3e3c bb6f 1e3d
00000040: c9da a6bc 2728 22bc aa4b 6ebc a2fb 01bc
00000050: 78a6 ff3b 4be4 88bc aa0a 41bb 7da8 4d3c
00000060: 182f 733c 0bb0 c7bb e557 25bc 9415 ddbb
00000070: 9634 2dbc 0b8c 01ba a518 07bc 906f 833c
00000080: ac5a d03b 0d48 a2bc 3589 0ebc aaef 29ba
00000090: 596a d93b f7a4 e63b 5b18 c8bc 5728 a5bc
000000a0: d9af 193c 0210 ddbb a4a6 56bc f83c 26bb
000000b0: 4256 99bb cb1e 763c 001f 653c 072f 7cbc
000000c0: 6dd8 9e3c cb8c d23b 396d 943c dde0 28b9
000000d0: 2151 c03c 7c31 afbb d68f 89bc 4e3c 9c3c
000000e0: d859 34bc f8d9 cbba 6430 8d3c a33c 1cbc
000000f0: 2e0c 393c 12d0 e63c a26a 533c 0e53 503c
00000100: cc9e ebbc 49bf 193b 101c 79bc 4f85 693b
00000110: 85f1 24bc f790 203b 5de5 cd3c 67de f3bc
00000120: 225f 053b 3f43 943c 5523 5bbc 01c1 c53b
00000130: ce63 5b3a 35ac c6bb c6c5 583b e1ec 54bc
00000140: d9bc ad3c b185 0fba 0087 cabb 90c6 af3c
00000150: f0e7 ddbc ebaa afbc 9be0 043c 473f 4bbc
00000160: 4b6e ddbc b7f2 72bc eaea b23c 4eb9 963c
00000170: ad83 8e3c 329c 933c 70ee 073d efa3 d73b
00000180: 59ca f43c 12a0 d1bc 9d07 5dbc ddbd 95ba
00000190: a167 edbc 6dbc 313c 3a4f 933c 1197 9f3c
000001a0: e59b e23b 935f a53c f5c5 1fbc d7c7 4cbb
000001b0: dbe5 eebb 8748 a2bb 3d2b 293c 321d 81bc
000001c0: cd95 2a3b dec2 2d3c 7db0 12bd 755e 6dbc
000001d0: 9628 0abc 61db e93b 6ab9 51bb c215 c23b
000001e0: 14ed 40bd 5fed 05bb 4bf4 dfbc 4205 9ebc
000001f0: b01d eebc 50e6 5c3d bcdc 3dbb e00a 263d
00000200: 9909 f4bc 3c5a 3ebc b465 473c 74b9 413b
00000210: b379 f5bb b104 1a3d c166 eabc 00a2 06bc
00000220: 34df 533c 7b22 febb be1d cb3c ddc1 e13c
00000230: 4923 483c 6c63 5f3c 5752 293c 4b51 953b
00000240: 5642 91bc 8f3a 073d 0cb2 f83c 85a3 61bc
00000250: e949 b0bc 61f4 213c 4931 413c 01a5 ecbb
00000260: 7580 393c d3bf c6bc e043 9abc 301e 2fbc
00000270: 0015 993b b2a0 a3bb a5ad 283d dbb0 883c
00000280: 0219 d53c ca2d dfbc cd67 adbb b588 9b3c
00000290: 8969 dd39 4bb9 8b3a 8039 f4bc 2e5d cd3c
000002a0: 10b1 023b a699 443b 2da9 c1bc e78a efbc
000002b0: 2b5f 0bbd 3942 71bc 02d1 deba bd5a ae3c
000002c0: b9d8 7bbc c25e 9d3b 091e 9cb9 0388 15bc
000002d0: 9b88 e13c ef3a bb3b 5967 21bc fe66 26bc
000002e0: 493d c13c d383 f3bb 099f 4abc 446d 133d
000002f0: 6747 b8bb ccd8 dd39 7bd7 643c f966 a4bc
00000300: 1808 6fbc 7df5 b6bc 1281 a7bc f94e 5bbc
00000310: d843 2b3d e506 cebc 36cc 0e3c 00bf 433c
00000320: 1334 1a3c cb0d 9d3a ffd1 123c 82a4 74bb
00000330: d281 ddbc 7fc6 9cbc 564a 87bc 12ea ba3b
00000340: 7bb9 dc3a 4110 c3b9 2722 14bc 2248 3ebc
00000350: 944a 283c a74d 233b 2731 5b3d 8423 a23c
00000360: d7c7 553c 8992 98bb 840a e4bc 38ec c9bb
00000370: 3934 8b3c ede1 273b 057b 34bc 1083 42bc
00000380: 811a 3dbc fbf6 163c 5f45 93bc 69df 393b
00000390: 00a7 b03c 8783 1a39 8e9b ce3c 99c9 ffbb
000003a0: 5368 6a3c 8b2b 6e3a 6578 fabc 7d76 37bc
000003b0: 5df1 3fbc 0d61 a73c dc80 c53b bfb8 10bd
000003c0: 5595 57bb e558 b6bc 5025 273c 6b11 0dbc
000003d0: 7644 1f3a a936 6cbc 5b62 1ebc 7db9 37bd
000003e0: e164 7abc 556d fcbc c4d6 923c 74a4 21bb
000003f0: 339d 513c 7e5c 6e3b eaa1 8c3d 8f9c fc3b
0.06373326 0.009834972 -0.021222327 0.0044137305 -0.029140824 -0.019812193 -0.008388955 -0.019845542
-0.027449323 -0.006953476 0.019251812 0.046613984 0.022149464 -0.02363844 0.011648588 0.038680773
-0.020367997 -0.009897268 -0.014544407 -0.007933529 0.007801827 -0.016710421 -0.002945582 0.012552378
0.014842771 -0.006093984 -0.0100917565 -0.006746957 -0.0105716195 -0.00049418275 -0.008245622 0.016044408
0.006358465 -0.019809747 -0.008699705 -0.0006482551 0.006634992 0.0070387083 -0.024425676 -0.020160837
0.009380304 -0.006746293 -0.013101254 -0.002536593 -0.004679472 0.01502199 0.013984442 -0.015392072
0.01939031 0.0064254752 0.018118488 -0.00016105497 0.023476185 -0.005346475 -0.01679222 0.019071724
-0.011007749 -0.0015552631 0.017234989 -0.009535941 0.011294408 0.028175388 0.012903841 0.012715114
-0.028762244 0.0023459962 -0.0152044445 0.0035632437 -0.010067348 0.0024500468 0.025133783 -0.029769136
0.0020350893 0.018098472 -0.013375123 0.0060349707 0.0008369059 -0.006063009 0.0033076867 -0.012995929
0.021208214 -0.00054749387 -0.006180644 0.021456987 -0.027088135 -0.021443805 0.008110191 -0.012405223
-0.02703013 -0.014828376 0.021840531 0.018398907 0.017396772 0.018018816 0.033186376 0.0065808217
0.029881643 -0.025589023 -0.013490585 -0.0011424382 -0.028980078 0.010848147 0.017982114 0.019481214
0.0069155567 0.020187175 -0.0097517865 -0.0031247044 -0.0072905845 -0.0049524936 0.01032525 -0.015760992
0.002602923 0.010605542 -0.035812844 -0.014487852 -0.008432528 0.0071367477 -0.0032001385 0.005923004
-0.047101095 -0.0020435674 -0.027338168 -0.019289616 -0.02906689 0.05393058 -0.002897068 0.040537715
-0.029789733 -0.011618193 0.012170244 0.0029560002 -0.0074913143 0.03760213 -0.02861345 -0.008217335
0.012931634 -0.0077555752 0.024794456 0.027558262 0.012215444 0.013634544 0.010334573 0.00455681
-0.017731827 0.03301483 0.030358337 -0.013771896 -0.021519618 0.009884925 0.011791536 -0.0072218184
0.01132213 -0.02426139 -0.018831193 -0.01068835 0.004671693 -0.0049935216 0.041181225 0.016685894
0.026012901 -0.027243514 -0.005291915 0.018986085 0.00042231035 0.001066008 -0.029812574 0.025068846
0.0019941963 0.0029998808 -0.02364024 -0.029241038 -0.034026306 -0.014725261 -0.0016999545 0.021283502
-0.015371495 0.004802556 -0.00029777017 -0.009126666 0.027530959 0.0057138125 -0.0098513 -0.010156391
0.023588793 -0.007431486 -0.0123670185 0.035992876 -0.005623746 0.0004231393 0.01396739 -0.020068632
-0.014589332 -0.022333855 -0.020447288 -0.013385528 0.041812748 -0.025149772 0.00871568 0.011947393
0.0094118295 0.001198226 0.0089612 -0.00373295 -0.027039442 -0.019137619 -0.016514938 0.005704173
0.0016839945 -0.00037205408 -0.009041346 -0.0116138775 0.010271687 0.002491811 0.053513672 0.019792326
0.013048134 -0.00465614 -0.027837045 -0.0061621927 0.016992675 0.002561684 -0.011015658 -0.011872068
-0.011541964 0.009214158 -0.017977415 0.0028361923 0.021564007 0.00014735582 0.025220659 -0.0078060147
0.014307099 0.0009085468 -0.030574987 -0.011197683 -0.01171526 0.02043202 0.006027324 -0.035332438
-0.0032895405 -0.022259185 0.010201767 -0.00861011 0.000607557 -0.014417329 -0.009667004 -0.04485463
-0.0152828405 -0.030813852 0.017924674 -0.0024664672 0.012793827 0.0036371048 0.0686682 0.007709093

transformer.h.0.mlp.c_fc.bias f4 [64]
00000000: 0000 0000 0000 0000 0000 0000 0000 0000
00000010: 0000 0000 0000 0000 0000 0000 0000 0000
00000020: 0000 0000 0000 0000 0000 0000 0000 0000
00000030: 0000 0000 0000 0000 0000 0000 0000 0000
00000040: 0000 0000 0000 0000 0000 0000 0000 0000
00000050: 0000 0000 0000 0000 0000 0000 0000 0000
00000060: 0000 0000 0000 0000 0000 0000 0000 0000
00000070: 0000 0000 0000 0000 0000 0000 0000 0000
00000080: 0000 0000 0000 0000 0000 0000 0000 0000
00000090: 0000 0000 0000 0000 0000 0000 0000 0000
000000a0: 0000 0000 0000 0000 0000 0000 0000 0000
000000b0: 0000 0000 0000 0000 0000 0000 0000 0000
000000c0: 0000 0000 0000 0000 0000 0000 0000 0000
000000d0: 0000 0000 0000 0000 0000 0000 0000 0000
000000e0: 0000 0000 0000 0000 0000 0000 0000 0000
000000f0: 0000 0000 0000 0000 0000 0000 0000 0000
0.0 0.0 0.0 0.0 0.0 0.0 0.0 0.0
0.0 0.0 0.0 0.0 0.0 0.0 0.0 0.0
0.0 0.0 0.0 0.0 0.0 0.0 0.0 0.0
0.0 0.0 0.0 0.0 0.0 0.0 0.0 0.0
0.0 0.0 0.0 0.0 0.0 0.0 0.0 0.0
0.0 0.0 0.0 0.0 0.0 0.0 0.0 0.0
0.0 0.0 0.0 0.0 0.0 0.0 0.0 0.0
0.0 0.0 0.0 0.0 0.0 0.0 0.0 0.0

transformer.h.0.mlp.c_proj.weight f4 [64, 16]
00000000: 4e77 5d3c 7b6f c5bc 0376 70bc 5905 66bc
00000010: 30fe a73a 19ca 88bc ebb5 f9bc 9e1f bcbc
00000020: dedb fd3c 3743 15bc 5f80 8e3b f828 dcbb
00000030: 7726 263c 1d99 5bbb 226f 5a3b da4c 1ebd
00000040: b99a 793c e14d ca3c 8f65 ca3c acbc 933c
00000050: ebef 2a3d 1c55 61bc 25c1 d03c 0b3e f8bb
00000060: 99a4 ecba 6c2e f53c 1853 393d 2d7e 1cbc
00000070: 59e3 92bb a755 843c 567f a13c 8f13 07bc
00000080: 5c2c a3bc 79a2 cebc f27a 1b3c 70c9 8dbc
00000090: 2f17 a7ba 2b23 d43c 4062 8e3c 16e8 85bc
000000a0: 6f8f ffba abbc 0b3b 14ce c8bc 59ba c6bb
000000b0: 4218 b8bc 74e9 e03b 3894 023c 2d3b a8bc
000000c0: 5430 a3bc 4b0c ccba 79f6 8bbb f710 29bb
000000d0: 951c 94bc 22c2 aa3b d832 b0bc fe5a 363b
000000e0: 2675 de3a 51d4 093c 79d4 88bc 59f4 dfbb
000000f0: ce3c fdbc 5c02 12bd fd20 17bb 9e14 b33c
00000100: e033 423c a1cf 6f3c 6ed8 adbb b096 9abc
00000110: f79e 00bc e6bb 6ebb 6f88 503c b43c 0f3b
00000120: 4454 a13c fb8e 8dbb 9d25 b63c b70d 903c
00000130: 5673 16bc f7ed 093b 8e50 bd3b 5e38 c1bc
00000140: 36f6 92bc c27a 58bd 9ce6 c13c 391c 96bb
00000150: 2aa6 93bc dcf3 a83c 0e25 a43c 2d2f 8cbb
00000160: 0564 833b 7753 1ebd 23ab fdbc 8169 e93c
00000170: 88fa a23b 0593 2ebc 27cd de3c 0fdc 263b
00000180: ef8d 8c3c 6a2f 673c 94a1 ae3c 2eec 34bc
00000190: 7a0d 02bc 470f c13b d0cc 0bbb 59e8 753c
000001a0: 0420 2e3c 4fac 8dbc b038 ffbc b2e5 173d
000001b0: 8fd7 a43c 02f0 f43b 672c ebbc e1e4 2b3b
000001c0: 7ede 3abd ebbf 683c 031c 9cbc 4c9c f1bc
000001d0: a4b1 483c a69d bfbb 1bf2 173c e28a b93c
000001e0: fc16 abbc 1888 203c 8883 813c cc5e 05bd
000001f0: 13f9 f33c ff13 213c f584 f93b 0020 113b
00000200: 462d afbc 0e7b 203c fd88 1b3c 3b07 493c
00000210: e243 7d3c e091 cbbc 32d2 153d b34a 2d3c
00000220: cdc5 113d 3d76 92bc c2ff 233c bd87 76bb
00000230: e988 023b bd96 01bb ad5f b839 c969 bfbb
00000240: 02c0 203c 0641 a4bb c9f6 e23c 27bb d03c
00000250: c839 9bbc 2b3a 06bd 4276 aebb 06ac 1ebc
00000260: e072 28bc 848d 30bc cd79 99bc bccd 5d3c
00000270: faf9 0b3d 5682 af3c 59c6 a0bc 2644 a5bc
00000280: 6740 06bd 8e2f 2cbd dc75 e7bb 9b10 03bd
00000290: 4957 243d ec44 8cbb 8e10 b33c eb2e c53c
000002a0: 4622 93bc 0d64 15bb 8a00 bcbc eea4 19bd
000002b0: da03 20bb d40e 823c 6a8f 07bc 60e7 01bc
000002c0: 994a 253d 779a e5bc 1845 afbb 4741 c2bc
000002d0: 2d59 843c f95f 8bbc bcba a63c 972d 5d3c
000002e0: 4c07 803b d990 0d3c ed33 ad3c 392b 59bb
000002f0: 4208 f03b b96f 843c 65cc fbbc 8c47 68bb
00000300: 07da ec3c 464d 31bc 4691 583c 9e90 043d
00000310: bdc1 563c f4d0 6fbc 662f 80bc cefe 2dbc
00000320: 02a5 853c ae6f 5cba 39c7 10bc 00e7 d83c
00000330: b588 08bc 8a05 f8bb caa2 e03b e26b 36bc
00000340: 0556 323c c75a e7bc 80e9 f5bc 7fbc 0c3c
00000350: 82ff a23a a148 cebc a40d 66bc 22d1 eabb
00000360: 316c 06bc 8382 173a 89ed 363a d304 0ebc
00000370: 7444 383b 5395 5b3c c1ba a5bc 9daf f3bb
00000380: ae4e b9bc 3335 a4bc 96d1 11bc 5261 1f3c
00000390: 8a8d c7bc 264d 89bc 4dc7 8ebc 24c4 4cbb
000003a0: 3e61 813c 9dd2 9dbc f220 41b9 c59f c83c
000003b0: eb07 54bb 46ae 05bd e1d0 403c 2382 153c
000003c0: c268 8e3b f3f0 b93b fe5a c1bc 443f 9c3b
000003d0: a055 bf3c 82ce 1fbc 4f64 a6bc 6f54 a43c
000003e0: fb8a 37bc 82d2 e83b 82ae a23b 5e3e 2ebc
000003f0: 243e cdba 00ef e13c a0a0 47bc 18e1 073d
0.013517214 -0.02410101 -0.014676574 -0.014039361 0.0012816843 -0.01669793 -0.030482253 -0.022964295
0.03098863 -0.009110264 0.004348799 -0.006718751 0.010141007 -0.003350801 0.00333304 -0.03864751
0.015234643 0.024695339 0.02470663 0.018034302 0.04173271 -0.013753202 0.025482723 -0.0075757555
-0.0018054425 0.029929362 0.04524526 -0.009551567 -0.0044826684 0.016154123 0.019714039 -0.008244409
-0.019918613 -0.025223957 0.009489762 -0.017307967 -0.0012747998 0.025895676 0.017380834 -0.016346019
-0.0019497703 0.0021322172 -0.024512328 -0.006064695 -0.022472505 0.0068637673 0.007969908 -0.02053603
-0.019920506 -0.0015567628 -0.004271325 -0.0025797465 -0.018080035 0.0052111307 -0.02150862 0.0027825232
0.0016972169 0.008412437 -0.016702877 -0.0068345484 -0.030912783 -0.03564678 -0.0023060434 0.021860417
0.011853188 0.014636905 -0.0053053414 -0.018870682 -0.0078504 -0.0036427914 0.012727841 0.002185625
0.019693501 -0.004320023 0.022234732 0.017584665 -0.009182772 0.002104638 0.005777425 -0.023586448
-0.017939668 -0.052851446 0.023669533 -0.004581001 -0.01802357 0.020624094 0.0200372 -0.0042780847
0.004009726 -0.038653817 -0.030965393 0.028492691 0.0049737133 -0.010655169 0.027197434 0.0025460755
0.017157523 0.0141104255 0.02131728 -0.011042638 -0.007937783 0.005891714 -0.0021331795 0.015009009
0.01062775 -0.017294077 -0.03115496 0.03708429 0.020122318 0.0074749 -0.028707696 0.0026228952
-0.04562234 0.014205913 -0.019056326 -0.029493473 0.012249384 -0.0058476506 0.009274031 0.022649232
-0.020884983 0.009798072 0.01580979 -0.03256111 0.029781854 0.009831428 0.0076147267 0.0022144318
-0.021383893 0.0097949635 0.00949311 0.01226979 0.015458079 -0.024849832 0.03657741 0.010576892
0.03558903 -0.017878646 0.010009708 -0.0037617527 0.001991803 -0.0019773685 0.000351665 -0.005841468
0.009811403 -0.005012634 0.027705567 0.025479866 -0.01894845 -0.032770317 -0.005324156 -0.009684568
-0.010281295 -0.010775927 -0.018734837 0.01353782 0.034173943 0.021424454 -0.01962583 -0.020174097
-0.032776263 -0.04203754 -0.0070636105 -0.031998258 0.040122304 -0.004280677 0.02185848 0.024070224
-0.017960679 -0.002279523 -0.022949476 -0.037510805 -0.0024416358 0.015876211 -0.008273939 -0.007928699
0.040354345 -0.028027756 -0.005348813 -0.023712767 0.016155804 -0.017013537 0.020352714 0.013499639
0.00390712 0.008640491 0.021142924 -0.0033137335 0.007325203 0.016166555 -0.030737111 -0.0035443036
0.028912557 -0.010821646 0.01321823 0.03236448 0.013107714 -0.014637221 -0.015647601 -0.010619832
0.016314033 -0.00084089756 -0.008836561 0.026477337 -0.008333375 -0.0075690197 0.0068553435 -0.01113412
0.0108847665 -0.028241528 -0.030018568 0.008589863 0.0012435766 -0.025181117 -0.014041338 -0.007166044
-0.008204506 0.00057796406 0.00069781445 -0.008668142 0.0028116973 0.013402301 -0.020230653 -0.007436706
-0.022620525 -0.020044899 -0.008900067 0.009727793 -0.024359483 -0.01676042 -0.017429018 -0.0031244839
0.015793439 -0.019265467 -0.00018418187 0.024490247 -0.0032353352 -0.032636903 0.011768551 0.009125265
0.004345984 0.0056744753 -0.023602959 0.004768284 0.023356259 -0.009753825 -0.020311503 0.020059792
-0.011202569 0.0071051726 0.0049646506 -0.010634987 -0.0015658778 0.027579784 -0.012184292 0.03317365

transformer.h.0.mlp.c_proj.bias f4 [16]
00000000: 0000 0000 0000 0000 0000 0000 0000 0000
00000010: 0000 0000 0000 0000 0000 0000 0000 0000
00000020: 0000 0000 0000 0000 0000 0000 0000 0000
00000030: 0000 0000 0000 0000 0000 0000 0000 0000
0.0 0.0 0.0 0.0 0.0 0.0 0.0 0.0
0.0 0.0 0.0 0.0 0.0 0.0 0.0 0.0

transformer.h.1.ln_1.weight f4 [16]
00000000: 0000 803f 0000 803f 0000 803f 0000 803f
00000010: 0000 803f 0000 803f 0000 803f 0000 803f
00000020: 0000 803f 0000 803f 0000 803f 0000 803f
00000030: 0000 803f 0000 803f 0000 803f 0000 803f
1.0 1.0 1.0 1.0 1.0 1.0 1.0 1.0
1.0 1.0 1.0 1.0 1.0 1.0 1.0 1.0

transformer.h.1.ln_1.bias f4 [16]
00000000: 0000 0000 0000 0000 0000 0000 0000 0000
00000010: 0000 0000 0000 0000 0000 0000 0000 0000
00000020: 0000 0000 0000 0000 0000 0000 0000 0000
00000030: 0000 0000 0000 0000 0000 0000 0000 0000
0.0 0.0 0.0 0.0 0.0 0.0 0.0 0.0
0.0 0.0 0.0 0.0 0.0 0.0 0.0 0.0
